CNN/model/char74k_cnn.tflite (tflite, 677932 bytes, 10 tensors)

sequential/conv1/Conv2D/ReadVariableOp f4 [1, 3, 3, 32]
000000 98 35 05 3d 44 18 3c 3e a7 89 8f 3d 09 72 a0 bb
       0.032521814 0.18368632 0.07008677 -0.0048964065
000010 5b 7a 2d bd 65 fc e2 3d 82 85 91 bd 37 6a 80 3d
       -0.042353015 0.11083297 -0.07105543 0.06270259
000020 d5 89 ba 3d d3 56 15 3d 03 da 73 3d 14 68 1c 3e
       0.091083206 0.036459755 0.059534084 0.15274078
000030 77 f4 73 bd da 6f f2 3d 18 0c f8 bd ed 0c 4b 3e
       -0.05955931 0.1183774 -0.12111682 0.1982915
000040 97 fe 6e 3d 5a 81 0b 3d 74 2f 8b bd 39 f5 33 be
       0.058348265 0.034058906 -0.0679616 -0.17574014
000050 ac a9 d9 ba 49 71 46 3e b5 3f 38 3d 6a 0d 05 bd
       -0.0016606352 0.19379152 0.04498263 -0.032483496
000060 4c 08 f6 3d ad da 3a be 53 f2 be 3c 51 90 9e bd
       0.12013301 -0.1824748 0.023308909 -0.0774237
000070 eb 9c cf 3d ce ff 1d 3e e6 50 1e bd 0a ec 0a bd
       0.101373516 0.15429613 -0.03865137 -0.03391651
000080 c9 30 82 bc 8a 90 af bc 96 a3 bd 3d 2e 21 57 3e
       -0.015892403 -0.021431226 0.09259717 0.21008751
000090 91 73 4b 3d 47 de be bc 94 f4 da 3d f4 2a 9f 3d
       0.04967076 -0.02329935 0.10691181 0.077718645
0000a0 12 a5 16 3e b6 dd e9 bd 43 52 3b be c4 2a 2b 3d
       0.14711407 -0.11419241 -0.18293099 0.04178883
0000b0 52 5e b6 bd a0 10 89 bc cc 14 3e be 47 ea 6b 3e
       -0.08904709 -0.01673156 -0.18562621 0.23038588
0000c0 12 c0 ad bc aa 7a 2a be 2e 1d f3 3d 56 72 d8 bd
       -0.02120975 -0.16648355 0.118708 -0.10568683
0000d0 5d b2 25 be 6c ee bd bd ee 45 32 3e 25 f7 5c bd
       -0.16181321 -0.09273991 0.17409489 -0.053946633
0000e0 87 70 23 3e 60 8d 65 be 7c b6 ef bc 3e e3 d7 bd
       0.15960895 -0.22417212 -0.02926182 -0.1054139
0000f0 b3 15 54 3e 6d e8 2d 3e b9 04 ed 3d 28 d1 25 3e
       0.20711403 0.16983195 0.115731664 0.16193068
000100 7f 6c 42 be 58 bf 05 be 58 aa 54 3e 69 47 0d 3e
       -0.189867 -0.13061273 0.20768106 0.13796772
000110 af 1a 28 3e 39 76 08 be d3 ab 22 3e ae e4 0d 3e
       0.16416429 -0.13326348 0.15885858 0.13856766
000120 0f 08 ff 3d 3c af 6e bd 92 93 79 be 6b 0d e3 bd
       0.12452709 -0.058272585 -0.243727 -0.11086544
000130 b8 e0 ac be 03 b9 15 3e f2 dc b4 bc 19 6f 1b 3e
       -0.33765197 0.14621358 -0.022078011 0.15179099
000140 ca 83 c3 bd d0 ed 94 be 07 2a c1 3d 0c 51 34 bb
       -0.09546621 -0.29087687 0.09431844 -0.0027514128
000150 b0 74 23 3d f6 16 39 3b 7e 73 dc 3d 86 0e 18 be
       0.039906204 0.0028242446 0.10764216 -0.1484929
000160 bd c4 0e 3e e3 7c 62 be e2 5b 4c 3c a7 e2 d7 bc
       0.13942237 -0.22117953 0.012473078 -0.026353193
000170 e1 82 24 3d cf 99 3f 3e 96 a1 14 3e c5 4d de 3d
       0.04016388 0.18711017 0.14514765 0.10854677
000180 a9 6c 0e 3e 18 a5 a1 bd 36 cb 20 be 22 3f 54 bd
       0.13908638 -0.07892817 -0.15702519 -0.05181802
000190 67 b6 b2 3d 10 29 40 3e b6 07 dd 3d d4 a8 0f 3e
       0.08726197 0.18765664 0.10792486 0.14029247
0001a0 24 6a ed 3d 77 af 0e 3e 8b a7 06 3e 5c a9 36 3e
       0.1159251 0.13934122 0.1314985 0.17838043
0001b0 14 ce 19 3e 30 e6 e9 3d 34 e1 4c be 32 17 e4 bd
       0.15020019 0.11420858 -0.20007783 -0.11137237
0001c0 5c 38 a2 3d a4 59 3d 3e 36 13 47 3b 57 1a 3b be
       0.07920906 0.18491226 0.003037644 -0.18271767
0001d0 35 59 85 3d 72 3f a9 3d 04 72 23 bc a8 e8 4b 3e
       0.065111555 0.08264054 -0.009975914 0.1991297
0001e0 76 59 2b 3e e5 7a 8a bd 89 52 ee bb 8a 12 a9 3d
       0.16733345 -0.067617215 -0.0072730226 0.08255489
0001f0 83 0e 8a 3d c0 f1 12 3e 15 46 1a be ff 5e 66 3d
       0.06741049 0.14350033 -0.15065797 0.05624294
000200 cd 8d 02 3e 6a 63 79 bd 7c 58 9b bd 6d 61 66 bd
       0.12749405 -0.060885824 -0.075852364 -0.056245256
000210 08 4f c6 3d f7 6b 46 3e 77 e6 2d bd 15 60 b9 3d
       0.09683043 0.19377123 -0.042456117 0.09051529
000220 9b d9 bc 3b 03 bb 5f 3d 28 ed 3c 3e 3e 5a 65 3c
       0.0057632453 0.054621708 0.18449843 0.013998566
000230 92 2c 55 3a 4e a6 36 3e b8 7d 0f 3e 0d d2 58 3e
       0.00081319467 0.17836878 0.14012802 0.21173878
000240 3d fc d4 bd cc c8 22 3e ce 51 66 3e 18 89 ab bd
       -0.10399673 0.1589691 0.22492144 -0.08375758
000250 a9 3c 70 3d d5 d5 2d 3c ee 29 99 3d ce 9e 0e 3e
       0.0586516 0.010610064 0.074787006 0.13927767
000260 55 83 b8 3d 40 10 36 3e d5 2c 85 bd 4c a0 b7 3d
       0.090094246 0.17779636 -0.06502692 0.08966121
000270 94 d5 3f 3e 84 1a a3 bc b1 dd f0 3c 8d fb 00 3c
       0.18733817 -0.019910105 0.029402586 0.007872474
000280 6c 2d aa 3d f7 37 a2 bd a0 7a 31 3e 41 d9 ac bd
       0.08309445 -0.07920831 0.17331934 -0.084398754
000290 ed ef 3b 3e 71 9a b3 3d f4 d8 00 3e f5 ae 61 3d
       0.18353243 0.08769692 0.12582761 0.055098493
0002a0 9c b1 08 be b2 a9 c0 bd 49 3b 5c bd cc 0c 24 3e
       -0.13349003 -0.09407367 -0.053767476 0.16020507
0002b0 c3 96 d2 bd 41 0c b3 3c 4c 19 2b 3e 2f a8 fc 3d
       -0.10282662 0.021856429 0.16708869 0.12336766
0002c0 28 93 b7 bd f5 54 ae bd d9 03 32 bc 3c 9a 2b 3e
       -0.08963615 -0.08512298 -0.010865175 0.16758054
0002d0 6c 99 a7 be 57 c7 36 3d f3 22 3f be 74 cb 2c 3e
       -0.3273424 0.0446237 -0.18665676 0.16874486
0002e0 89 0e e4 3d 42 67 3b 3e e8 1d 94 3c b1 24 bd 3d
       0.11135585 0.18301108 0.018080667 0.09235514
0002f0 c5 ab 32 3e a8 2f 10 3e ff 49 25 bc 3d 86 d2 3d
       0.17448337 0.1408068 -0.010088443 0.1027951
000300 20 b3 56 3d f8 cd 0d be 68 15 b2 bd be c1 ba bd
       0.05241692 -0.13848102 -0.08695489 -0.09118985
000310 91 21 16 3e 61 03 3d 3e 48 aa 1e 3e 71 c7 3c be
       0.14661242 0.1845832 0.15494645 -0.18435456
000320 98 78 be bd 2b b7 88 3d ee 1e 49 bd b6 11 38 3e
       -0.09300345 0.066755615 -0.049101762 0.17975506
000330 02 24 3a 3e c7 bb 00 bd fc 71 f8 bd f5 6a 42 bd
       0.18177798 -0.03142908 -0.12131116 -0.047465283
000340 23 2c 22 3e cc 6f 0f 3e 05 62 ca 3d 96 8d 8b bd
       0.1583715 0.14007491 0.09881977 -0.06814115
000350 48 66 6a 3e b0 46 1a 3e 3d 07 d8 3d 83 a5 a0 3d
       0.2289058 0.15066028 0.105482556 0.07844069
000360 42 25 0f be 81 e8 67 3e c7 b6 16 bd 57 18 0c 3e
       -0.13979056 0.22647287 -0.036795404 0.1368116
000370 8b ca 5a 3d ac b9 13 be 76 e6 1f be 6d 44 19 bd
       0.053415816 -0.14426297 -0.15615258 -0.03741877
000380 3b 32 92 3d ee 4d 10 bd 11 b5 06 be 95 4c d5 bd
       0.07138487 -0.03523057 -0.13155009 -0.104149975
000390 d3 26 68 3e 5a 3d 6d 3e 58 af fc 3a 0e f1 8b bc
       0.2267106 0.23167935 0.0019278331 -0.017082717
0003a0 d2 f5 d7 bd 0e d6 42 3e ad b2 44 3e d9 56 69 3e
       -0.105449334 0.19026968 0.19208784 0.22787036
0003b0 84 c0 6a 3e 74 e9 00 3e 91 7b 8c 3d 43 fd c7 3d
       0.22925001 0.12589055 0.06859506 0.09765103
0003c0 76 76 44 3e 8b 1e b6 3d 39 1d a9 3d 34 ac e0 3d
       0.19185814 0.08892544 0.08257527 0.10970345
0003d0 2b 0f ed 3d 64 f4 43 bd f8 2e db bd b0 c8 da 3c
       0.11575159 -0.04784049 -0.10702318 0.026707023
0003e0 01 97 f5 3d 9a cf 07 3e 23 09 20 3e 64 7b 91 3d
       0.11991692 0.13262787 0.15628485 0.07103613
0003f0 20 00 3e 3e 0c aa 88 3c 54 41 ea bd fc cc 34 be
       0.18554735 0.016682647 -0.114382416 -0.1765632

sequential/conv1/Conv2D_bias f4 [32]
000000 08 c0 53 bc 23 d6 01 3e 1f 36 e3 3b bd 25 70 3d
       -0.012924202 0.12679343 0.006933942 0.05862974
000010 7e bd e0 bc 77 dc 2f bc 32 39 33 bd 97 2f 94 bc
       -0.027434107 -0.010733715 -0.043755718 -0.018089099
000020 af 89 5a 3d de 77 5f 3b 0c b1 41 3a 1e 94 f9 bc
       0.05335396 0.0034098546 0.0007388748 -0.030466136
000030 9b f9 6a 3d 37 84 39 bd 04 33 b7 3d 24 a7 c5 bc
       0.05736695 -0.045292106 0.08945277 -0.02412755
000040 31 78 1b bc 5b 39 51 bb 38 40 2f bd 08 7e 93 3d
       -0.009489105 -0.0031925056 -0.042785853 0.07201773
000050 c5 02 02 3d 0a d0 3d 3b 99 4d de 3b 73 40 4f bc
       0.031740922 0.0028963112 0.0067841527 -0.012649643
000060 25 59 e8 bc e6 25 82 bb 8d 53 e5 bc fb c5 05 bc
       -0.02836282 -0.003971803 -0.027993942 -0.008164878
000070 71 6b 20 bd ce 61 f1 bc d8 d7 d3 3d 99 7f b5 ba
       -0.039164964 -0.029465582 0.10343903 -0.0013847231

sequential/conv2/Conv2D/ReadVariableOp f4 [64, 3, 3, 32]
000000 12 df 6c bd f6 00 0f be be c9 14 bd 89 44 97 bc
       -0.057829924 -0.1396521 -0.03632521 -0.018465297
000010 cb 7e f4 bc 78 27 93 bc fd af 78 3d 3f 78 06 3d
       -0.029845616 -0.017963156 0.06071471 0.03282952
000020 36 f2 db bd 4b 9d ac 3c e8 3b a6 3d 50 b7 32 bd
       -0.107395574 0.021071097 0.08116895 -0.04363185
000030 6b 68 d4 3d 2d 8c 96 3d b6 1e cf bd 0d 5b 18 3d
       0.10371479 0.07350955 -0.101132795 0.037196208
000040 64 d0 4c 3d ce b3 26 3d 4e 5a 52 3d 5d bd 81 bc
       0.050003424 0.04069882 0.051355653 -0.015837366
000050 10 25 28 3e c0 7e 28 3c 7a 36 d1 bd 49 0b 14 bd
       0.16420388 0.010284126 -0.10215469 -0.036143575
000060 3b f5 d0 3c 30 32 44 bd 4c f8 94 3b c8 bb a4 b9
       0.02550756 -0.047899425 0.004546201 -0.00031420426
000070 80 97 0a bd 47 94 8a 3d 6f b6 76 bc 47 2d 9d bd
       -0.033835888 0.06766563 -0.015058144 -0.076746516
000080 24 56 fc bc 39 5f d5 3c 6e e1 83 bc f6 4e 91 3c
       -0.030802794 0.026046382 -0.016098704 0.017737847
000090 c5 57 67 bb 7a 3d 4e bd 7e ae 79 bd 7c ee c3 bd
       -0.0035300117 -0.050351597 -0.060957424 -0.09566972
0000a0 9f fc 3b bd 09 17 b7 3c a7 0b 6e bd eb 5e 1d 3d
       -0.045895215 0.022349851 -0.05811658 0.0384206
0000b0 80 f5 0f 3e ec e2 08 3c f9 ec 2e be 11 f2 62 bd
       0.14058495 0.008354884 -0.17082585 -0.055406634
0000c0 4f dc f4 3d 32 dd d2 3d 46 e2 96 3c f1 06 d4 bd
       0.11956083 0.10296096 0.018418442 -0.103528865
0000d0 74 9d f7 3d fa 28 73 3d ef f7 9f bc b5 c5 96 bc
       0.12090579 0.05936525 -0.019527404 -0.018404821
0000e0 79 6f 12 3d ad 2d 47 bd c8 a3 3b 3a fe 22 c3 bb
       0.03575084 -0.048627544 0.0007157889 -0.005955099
0000f0 43 c6 87 bd 26 47 22 bc b6 e1 67 3d 1e 2f b7 bc
       -0.06629612 -0.009904658 0.05661174 -0.022361334
000100 e6 0e a1 bd 18 29 82 3c f2 b1 4d 3c ae fb c3 3d
       -0.0786417 0.015888736 0.0125546325 0.095694885
000110 14 aa fb bd df d8 ae bc 9c 54 33 3a f1 86 01 be
       -0.12288299 -0.021343647 0.0006840916 -0.12649132
000120 73 36 2b bd d4 66 00 bd 98 6c 01 be dd 33 59 3b
       -0.041799974 -0.031348065 -0.12639081 0.0033142485
000130 e0 71 87 3d 8c ee 5e bd ae 70 36 3d db e6 d3 bd
       0.06613517 -0.054426715 0.044541053 -0.103467666
000140 94 a6 9b bd 81 6f 19 3d 72 65 c0 bd 0f 58 54 3d
       -0.07600132 0.037459854 -0.09394349 0.05184179
000150 57 6a 7d 3d c4 d3 8d 3d b3 f7 f5 bd 8f ce ae bc
       0.06186899 0.06925157 -0.120101355 -0.02133873
000160 4a d9 14 bc 14 5b d9 bb 94 cb 9a bd 9b 1c 0b be
       -0.009085009 -0.006633172 -0.07558361 -0.13585131
000170 fe 77 50 3c 3c 16 89 bd c5 c2 fe 3d 51 82 81 bd
       0.012723921 -0.06693694 0.12439493 -0.06323684
000180 9a fc 85 3d a3 8a 9d bd ec 45 93 3d 31 61 83 bd
       0.065423205 -0.076924585 0.07191071 -0.06415022
000190 4b 33 b8 3c 10 14 a0 bb b7 56 f3 bc 52 25 80 3c
       0.022485396 -0.004885204 -0.029704435 0.015642796
0001a0 49 19 a1 bd ee e2 c1 bd 8f 40 4f 3d ab 1f 17 bd
       -0.07866151 -0.094671115 0.050598677 -0.036895435
0001b0 ef 81 cb bc 92 63 67 bd a7 93 81 3c d4 32 bd 3d
       -0.02484223 -0.056491442 0.015817476 0.0923821
0001c0 c9 2c 6e bd 76 91 87 3d 56 0f 18 3d c5 f6 ad 3d
       -0.05814818 0.06619541 0.037124 0.08494333
0001d0 e7 24 78 bc 16 51 fb 3c 17 e1 81 3c bc f8 40 3b
       -0.015145517 0.030678313 0.015854402 0.0029445132
0001e0 d5 2e c9 3d f3 21 de bd 90 73 ac bc 81 94 fe ba
       0.098233856 -0.10846319 -0.021051198 -0.001942292
0001f0 e4 80 46 3d 88 97 5b 3d 78 59 1d bd 5e 24 53 3d
       0.048462763 0.05361131 -0.038415402 0.051548354
000200 28 db a8 3d 9b 9a d6 bc 3c 51 c7 bd 80 e7 b9 bd
       0.08244926 -0.026196769 -0.09732291 -0.09077358
000210 1e cf 52 bd 69 77 05 bd b3 63 85 3d 31 d5 66 bd
       -0.051467054 -0.03258458 0.06513157 -0.05635566
000220 56 0c 81 bb 57 5c 87 3d cf 04 cb 3d 52 f6 4a 3d
       -0.003938238 0.06609409 0.099130265 0.049551316
000230 8b de ad 3d 26 c3 2b bd 69 a5 29 be cc 66 4d bd
       0.08489712 -0.041934155 -0.16567005 -0.050146863
000240 db ad b7 3d b9 c8 12 3e de 2c 33 3d de b5 3d be
       0.08968707 0.14334382 0.04374396 -0.18526408
000250 5f bb 1d 3e c4 36 71 bc 12 d5 6f 3d 98 af ff 3c
       0.15403508 -0.01472253 0.05855281 0.03121166
000260 ec ae 0c 3c c2 5f b1 bd 00 78 61 3d fc 02 8e 3c
       0.0085866265 -0.086608425 0.05504608 0.017335407
000270 88 ab 4b 3d b1 38 77 bd 45 6b aa bd 9d 9a dd bd
       0.04972413 -0.0603568 -0.08321241 -0.10820506
000280 f6 13 15 3d 55 17 ae bd 3c f5 ad 3c 68 ce 54 3d
       0.03639599 -0.08500544 0.0212351 0.051954657
000290 34 1e 22 3b a1 53 d0 3b 76 fc 9e bc 2d 70 de ba
       0.002473724 0.0063576256 -0.019407492 -0.0016970687
0002a0 ab f0 21 bc b7 11 8b bc 48 51 14 bd 1b 0e cb bd
       -0.00988404 -0.01697622 -0.03621033 -0.099148
0002b0 f9 fa 75 3d e6 79 03 be 4d 37 31 3d 55 4b 8a bd
       0.0600538 -0.1283947 0.04326563 -0.0675265
0002c0 65 a1 5a bd 0f fa 6b 3d c7 59 65 bd 23 12 35 3c
       -0.053376574 0.05761152 -0.05599382 0.011051687
0002d0 ad e0 aa 3d a5 74 d9 3d 23 e5 4c 3c c4 23 ba bd
       0.08343635 0.10617951 0.012505802 -0.09088853
0002e0 c6 ee 3b bd 10 d5 74 bd 34 6b 0e bd 84 7d a2 bd
       -0.04588201 -0.059773505 -0.034770206 -0.079340965
0002f0 27 a0 0b bd 25 81 9f bd 27 f7 18 3c dd 42 92 bd
       -0.03408828 -0.07788304 0.009336269 -0.071416594
000300 e0 93 bd 3c b8 9a 66 bd 81 23 0c 3e 48 66 30 bd
       0.023141801 -0.056299895 0.13685419 -0.043066293
000310 55 63 c2 bc 58 53 64 bd 89 59 a3 3c 2c 86 9c 3d
       -0.023729006 -0.055743545 0.019940155 0.07642779
000320 50 92 a0 bd 63 8a 82 bc d6 4b e6 bc ac 01 24 3d
       -0.07840407 -0.015935129 -0.028112333 0.040040657
000330 4a 1a e6 bd 19 78 1c 3d a5 b6 2c bc 6b 6c e6 3d
       -0.11235483 0.03820047 -0.010541593 0.11251148
000340 18 e0 85 bd 9d 4b c8 bd f7 bd bf 3b d9 95 5c 3d
       -0.06536883 -0.09780047 0.005851503 0.053853843
000350 91 7a 8e bd c3 b7 22 3d 8c 75 e8 bc 0e 8b aa bd
       -0.069569714 0.03972603 -0.028376363 -0.08327304
000360 e2 6e 81 3d 31 75 bf bd 30 7c 5b bd b6 2a 17 3c
       0.06319977 -0.09348524 -0.05358523 0.009226492
000370 53 81 dc 3d 06 14 8e 3d 82 90 ad 3b db 0d 7c bd
       0.10766854 0.06937413 0.0052967677 -0.06153665
000380 00 9e a8 3d d4 52 29 be 8d 95 8d bd f3 41 09 be
       0.08233261 -0.16535503 -0.0691329 -0.13404064
000390 ba b3 0a bd b7 6d bb 3d 77 f7 87 bc 24 9e 22 3d
       -0.033862807 0.09151786 -0.016597493 0.039701596
0003a0 8f 03 8f bd ff ce d6 3d 71 72 24 3e ee ae 3b 3d
       -0.069831006 0.104887 0.16059281 0.045821123
0003b0 fa 6d c3 3d c7 0c 4e 3d 2f 03 88 bd 00 7a ef 3d
       0.09542461 0.050305154 -0.06641232 0.116931915
0003c0 3d 14 16 bc aa 4e 5b 3d 1f b8 cb 3d 98 69 5d bd
       -0.009160099 0.053541817 0.09947228 -0.05405578
0003d0 53 69 0b 3e 33 4c ed bc f9 e2 8d bd a2 97 27 3d
       0.13614397 -0.028966999 -0.06928057 0.040916093
0003e0 6a aa be 3c 89 22 89 bb bd 98 bc bc 57 66 af 3d
       0.02327462 -0.004185025 -0.02302205 0.08564442
0003f0 6a e9 e2 3d 59 cf dd 3c dd 98 06 bd e3 cf 0f bc
       0.110796764 0.02707641 -0.032860626 -0.008777591

sequential/conv2/Conv2D_bias f4 [64]
000000 32 63 2f bc 05 ca 1a 39 20 6c 37 bd 2f 10 12 3c
       -0.010704802 0.00014761843 -0.04478085 0.008914991
000010 be 50 99 3b fd 54 60 3d 6c 8d 99 bc 85 ea de bc
       0.0046788147 0.05476855 -0.018744193 -0.027211437
000020 bc 79 12 bd 7a da 91 3d 2d 85 25 bc 83 31 56 3b
       -0.035760626 0.07121749 -0.010102552 0.003268332
000030 79 a1 d3 bb 35 a8 31 3c 0d 0f 8d bb bb c3 ad bc
       -0.006458458 0.010843326 -0.0043047727 -0.021211496
000040 4c 29 90 bc 39 b6 01 bd 05 0e 2d bc 5d 88 a7 bc
       -0.017597817 -0.03166792 -0.010562425 -0.020450765
000050 63 5f ed bc d3 3d fd bc 2f 8e bc 3c 0f d8 c0 3c
       -0.028976148 -0.03091327 0.023017017 0.023540525
000060 3a 4e b2 3c 9d a4 2d 3b a5 1c 46 3c 85 9b 29 bd
       0.021765817 0.0026495822 0.01209179 -0.04140808
000070 dd a5 77 bc f2 ca 37 bd 1c f2 0b bd 66 6d 37 bd
       -0.0151152285 -0.044871278 -0.03416644 -0.044782065
000080 e5 9c 00 bd 1c 71 c2 bc 87 6e a3 3c 58 07 05 bd
       -0.031399626 -0.023735575 0.019950164 -0.032477707
000090 b7 da cd bc a6 e0 8e 3c 5c d4 38 bc bc c1 a3 ba
       -0.025128705 0.017441105 -0.011281099 -0.001249365
0000a0 72 5e 2e 3b 4d ea b3 bc 69 dd 83 3a d4 f2 ce bc
       0.0026606587 -0.02196231 0.0010060492 -0.025262274
0000b0 8e b1 aa bc 9d 47 e0 3b 3d ff be 3b 62 ce 1a bc
       -0.020836618 0.0068444745 0.0058287666 -0.00944862
0000c0 2c 2d f9 bc d0 83 8b 3d 4b bb 43 bc 16 8e 97 bb
       -0.030417047 0.068122506 -0.01194651 -0.0046250923
0000d0 60 1b 3a 3d 3d ba 83 3c 2e 6d a5 bc 7d b7 a6 bc
       0.045436263 0.016080016 -0.020193662 -0.020351166
0000e0 b7 fd 3b bd 09 b1 8f bc 01 e4 cb bc b8 4b 51 bd
       -0.04589626 -0.017540472 -0.024888994 -0.0510976
0000f0 94 31 93 3c cd e3 a3 bc 40 99 d7 bc e4 ca 9b bb
       0.017967977 -0.020006085 -0.026318192 -0.004754411

sequential/conv3/Conv2D/ReadVariableOp f4 [128, 3, 3, 64]
000000 09 81 a2 bc 47 dc 68 3c 16 04 33 3d a0 ea 18 3d
       -0.01983692 0.014212674 0.04370507 0.03733313
000010 91 c7 13 3d c1 ce bf bd 7f 53 59 bc ca 63 18 3d
       0.036078993 -0.09365607 -0.013264536 0.03720454
000020 b1 35 8a bc 0b ef d1 bc c9 54 11 3d 52 1e 14 3d
       -0.016871305 -0.02562668 0.035481248 0.03616173
000030 ac 30 8f 3c 1c 04 3c bc b4 1e 01 bb 93 e8 75 3c
       0.017479263 -0.011475589 -0.0019702138 0.015009063
000040 16 8a 53 bd ce 05 19 bd e5 95 00 bc 4a 74 e0 bc
       -0.05164536 -0.03735905 -0.007848238 -0.027399201
000050 33 b1 47 3d 10 ae 80 bc d5 11 12 3d b2 98 a7 bd
       0.048752975 -0.015708 0.035661537 -0.08183421
000060 0a 90 f0 bd 0e 98 65 bc da d4 3e 3d 1a 72 65 bc
       -0.11746223 -0.014013303 0.04658971 -0.014004255
000070 90 ff 91 3c fc bb a4 3d ef 9f b7 3d c3 44 93 3d
       0.017822057 0.08043668 0.08966052 0.0719085
000080 60 82 ad 3c b3 b9 fb 3d 31 5b b5 bd f3 3a ab 3d
       0.021180332 0.12291279 -0.08855284 0.08360853
000090 21 a9 5c 3c c8 cf ea 3b 5c 2e 29 3b f5 96 ac bd
       0.013468058 0.0071658827 0.0025814986 -0.0842723
0000a0 d2 f1 1e bd 73 06 24 bd 71 7f 5a 3d 62 00 d8 3b
       -0.038804837 -0.040045213 0.053344194 0.0065918425
0000b0 d0 0d 52 3d 7e 64 d8 bd af af 18 be 85 14 01 3d
       0.051282704 -0.10566042 -0.14910768 0.03151371
0000c0 80 6d bd bc 76 d2 db bd fc ad d7 3d 27 3c fc bc
       -0.023123503 -0.107335016 0.10531232 -0.030790402
0000d0 2b c8 4a 3d 61 cc 6b bd 91 ed 54 3d e3 6d 1e be
       0.0495073 -0.057567958 0.051984373 -0.15471606
0000e0 1e 3c 87 3b 10 b0 81 3d af 26 52 bb a1 39 50 3c
       0.0041270396 0.063324094 -0.0032066514 0.012709052
0000f0 e5 6b d8 bb bf 03 ef 3c 51 59 b1 3d ba bf 1f bd
       -0.006604659 0.029176591 0.08659614 -0.039001204
000100 c8 52 ce 3d b1 08 9d bd 8e 17 1c 3d 02 42 30 bc
       0.10074383 -0.076676734 0.0381084 -0.010757925
000110 cc 19 7d bd c4 18 94 3c 53 7e 92 3b c0 6e dc bc
       -0.06179218 0.018078215 0.0044706254 -0.026908278
000120 03 bc 95 3d 7c 54 a6 3c 99 0c 71 bc 56 a1 ab 3c
       0.07311251 0.020303957 -0.014712476 0.020950954
000130 82 07 c6 3c 83 dc ef bd 8d 11 bf bd ea a4 b2 bb
       0.024173502 -0.11711981 -0.093295194 -0.005451788
000140 dd 3d 36 3d 15 29 18 bd 6a af 74 bb 68 a1 51 bd
       0.04449259 -0.037148554 -0.0037336 -0.05117932
000150 94 d7 71 3d ce e9 40 3d 7f d5 c7 bc bd 57 1e be
       0.059043482 0.047097974 -0.024393795 -0.15463157
000160 54 f4 62 bd 20 66 9a bd 1b ce f1 bc e2 e5 39 bc
       -0.05540879 -0.0753901 -0.029517224 -0.011346312
000170 eb d0 e6 3c af 5e d5 3c b0 c4 95 3d 3e 53 63 3d
       0.028175792 0.026046125 0.07312906 0.055499308
000180 61 cc 5b 3c a5 35 28 3d 8d 1b 1c 3c 13 57 77 3d
       0.013415427 0.041066784 0.009528053 0.060385775
000190 c8 a5 8d 3d 7c e6 3f 3d a6 20 0a 3d da f0 51 3c
       0.06916386 0.046850666 0.033722542 0.012813771
0001a0 6e 03 fe 3c dd 67 a5 bb 28 04 97 3d 48 25 34 3d
       0.031007495 -0.005047782 0.073738396 0.043980867
0001b0 82 c1 48 bd ca 2f 0a bb 7f cb 08 3d 8c 21 9d bd
       -0.04901267 -0.0021085613 0.033397194 -0.07672414
0001c0 dc f1 bd bd f1 2b e4 bc 54 b5 51 3c 69 9e 49 bd
       -0.09274647 -0.027852984 0.01279958 -0.049223337
0001d0 20 cc 27 bc 4b 3e a3 3d 62 29 88 3d ea f5 35 bd
       -0.010241538 0.07970866 0.06648518 -0.044423975
0001e0 47 c3 c8 3d e2 ea 39 bd 2a 14 ac 3c d0 84 9f bc
       0.09802871 -0.045390017 0.021005709 -0.01947251
0001f0 3b a9 56 bc 3e 72 b0 bc e1 a2 95 3d 88 7a ad bc
       -0.013101871 -0.02153885 0.07306457 -0.021176592
000200 36 29 23 bc b1 d0 43 3d 74 e4 ef bc 19 a5 ce bd
       -0.009958556 0.047806446 -0.02928374 -0.10090084
000210 bc 23 22 bc d2 01 0a bd e9 1c e5 bc 3d 92 5b 3d
       -0.009896215 -0.033693142 -0.027967887 0.05360626
000220 97 11 a0 3b 0f 60 8b 3d 76 cb c8 bb 48 ef ce bd
       0.0048849094 0.06805431 -0.00612777 -0.10104233
000230 92 85 30 3c 97 35 6f bd 30 4b f8 3c 97 37 f0 3c
       0.010774033 -0.058400717 0.03030929 0.029323382
000240 f5 d0 e2 ba b2 c7 74 bd 8e dd 40 bd df 95 8e 3d
       -0.0017304706 -0.059760757 -0.04708629 0.069621794
000250 36 8a 07 bd ad fb 17 3c d0 33 d3 bd 8b 0e 5a bd
       -0.033090793 0.009276313 -0.10312617 -0.053236526
000260 45 e8 95 bc 1a ca 32 bd 05 58 84 bd 73 8d 23 bd
       -0.018299231 -0.04364977 -0.06462101 -0.03992982
000270 91 ab 8d 3d 0e 57 8a bd 4c ed cc bc 36 e5 d0 bc
       0.06917489 -0.067548856 -0.025015496 -0.025499921
000280 5b 31 fc bc eb 30 8d bb e3 db f3 bc ce 75 82 bb
       -0.030785253 -0.00430881 -0.029767936 -0.0039813286
000290 8e 77 6e bd 3d 15 48 bd 96 8d 1a bd ad 09 fb bb
       -0.058219485 -0.04884838 -0.037732683 -0.0076610656
0002a0 f1 92 9f 3d d5 e4 18 3d 6a 6c 3a 3d ad cc 9d bc
       0.07791699 0.037327606 0.045513548 -0.019262636
0002b0 64 37 5a bd 79 89 cc bd c7 75 3a bd 5c 64 79 bd
       -0.05327548 -0.09987158 -0.045522477 -0.060886726
0002c0 58 6e 00 bd 8c 9e 36 3c 6a 2f 9b bd cd 81 15 bd
       -0.031355232 0.011146199 -0.07577403 -0.03650074
0002d0 ee ee fd 39 4e 42 e6 3a 78 dd 07 bd 47 06 34 3d
       0.00048433937 0.0017567368 -0.033170193 0.0439513
0002e0 2b 2d 0f 3d 76 14 92 3c cf 3a 2a bd eb aa bd 39
       0.034955185 0.017832022 -0.04155999 0.00036176233
0002f0 10 7d b2 bd 68 c1 a3 bc cc ef d1 3c 04 64 07 bd
       -0.0871526 -0.019989684 0.02562704 -0.033054367
000300 e8 00 68 bd f3 32 5f 3d 29 70 44 3b 11 37 c7 3d
       -0.05664149 0.05449195 0.002997408 0.097273
000310 c8 cb dd bc 04 1a 04 bd 38 51 bb bd 0d ef df bc
       -0.02707471 -0.032251373 -0.091463506 -0.027335668
000320 58 cc 08 3c 61 69 0b bd 65 77 b4 3d fd 10 b4 3c
       0.008349501 -0.034036044 0.08811835 0.021980757
000330 74 f4 99 bc dc 93 4b bd 90 ad 1e bb 58 15 ca bc
       -0.018793322 -0.049701557 -0.0024212338 -0.02466838
000340 2a a1 41 bd 59 31 3b bd a2 14 8c bd c3 d2 ab 3c
       -0.04727284 -0.04570136 -0.06839873 0.020974522
000350 5b ff ff bc f9 0f 13 bd 03 8d 12 bc 98 50 98 3d
       -0.031249693 -0.035903905 -0.008944753 0.07437247
000360 45 39 e1 3d 9b 9e 8f bd 3c 14 a2 3c 4c 49 ec bc
       0.109972514 -0.070126735 0.01978504 -0.028843544
000370 a0 bb af 3d 6d 4a 40 bd ec 2c ab 3d 14 3a 34 bd
       0.085807085 -0.046945978 0.083581775 -0.0440007
000380 3b db db 3a 11 49 0c bd f5 8b ae bd d8 b5 5c bd
       0.001677371 -0.03424937 -0.085227884 -0.053884357
000390 23 cb cc 3c 8d df 3a bd ca 94 7c 3d c3 d8 a8 bc
       0.024999207 -0.04562335 0.061665334 -0.020611173
0003a0 60 0a b5 3d cf 35 b9 bc c2 0a 37 3d 08 58 d8 3d
       0.088398695 -0.022608666 0.044687994 0.10563666
0003b0 e9 9f 06 3c af ed 8a 3d 99 25 91 bc f5 9e 81 bc
       0.0082168365 0.06783616 -0.017718123 -0.015822867
0003c0 bb 0c 27 3d 9a 09 13 3d c8 cf da 3d 67 9c 11 bd
       0.040783625 0.03589783 0.106841624 -0.035549548
0003d0 7f 55 d6 3d 8b 84 bd 3c e1 6a ea 3c f3 d6 93 3c
       0.10465526 0.02313449 0.028615417 0.018046832
0003e0 b0 6f 86 bd 3b 6e 59 bc c5 30 19 bd 9f 83 7a bd
       -0.065642715 -0.01327091 -0.037400026 -0.06116068
0003f0 97 e9 e4 3d 45 7e d5 3c f6 75 8f 3d 34 05 37 3d
       0.11177366 0.026061187 0.07004921 0.044682696

sequential/conv3/Conv2D_bias f4 [128]
000000 a8 ee 71 bb ed c3 0f bc cb 6c 99 bc ba 23 e3 bb
       -0.0036915932 -0.00877474 -0.018728634 -0.006931749
000010 9c 7d 91 39 b5 f7 42 bc d7 ad 17 bc a4 99 18 bc
       0.0002775014 -0.011899878 -0.009257755 -0.0093139745
000020 ee 35 51 bc ca a3 cb bb 19 21 e4 3c 22 e0 df bb
       -0.0127692055 -0.0062145935 0.027847813 -0.0068321386
000030 d3 3a 98 3b f1 a6 79 3c 29 28 dd 3b a9 8d 89 3b
       0.0046456843 0.015237556 0.006749172 0.0041977954
000040 a7 3f a9 bb dd 50 86 bc 09 f5 28 bb d1 2f f2 3b
       -0.0051650587 -0.01639598 -0.0025780818 0.007390954
000050 f6 61 47 bc a9 c4 98 bb b3 46 00 bc 5c 61 28 3c
       -0.012169352 -0.0046621156 -0.007829356 0.0102771185
000060 34 f5 e9 bb e9 3f 96 bc 4e 38 8d bb 78 75 c3 3b
       -0.007139826 -0.018341022 -0.0043096906 0.005964931
000070 1f 7b 38 3b 89 3f 79 3b e4 fd 31 bc 52 f9 07 3c
       0.0028149558 0.0038032255 -0.010863755 0.008299189
000080 24 94 e1 bb 74 fa 47 3c 2c 0b 44 bc 20 5d 69 3b
       -0.006884115 0.012205709 -0.011965554 0.0035608485
000090 bb 1b b7 bb a6 a1 bc bb 8c 2a fe bb d8 49 c1 3b
       -0.0055880225 -0.0057565747 -0.007756537 0.0058986954
0000a0 76 bd 01 3b 23 20 02 bc 01 8b a1 bb 2b 54 0d bc
       0.0019796765 -0.007942232 -0.0049299006 -0.008626024
0000b0 10 05 09 3c 1f 20 96 3b 82 ae 04 bc 0a dc 97 bc
       0.008363023 0.004581466 -0.0080982465 -0.01853754
0000c0 11 10 8d 3a 04 55 cb 3b 0b ea 97 3b 99 10 53 bb
       0.0010762234 0.006205203 0.0046360544 -0.0032205938
0000d0 36 06 8d bc a5 e8 c6 3b 64 82 fb bb b4 35 9f bc
       -0.017214876 0.006070214 -0.007675456 -0.019434787
0000e0 ca 22 37 bc 61 c4 dc bb 4c 7a 17 bb 88 e8 08 bc
       -0.011177728 -0.0067372774 -0.0023113666 -0.008356221
0000f0 da 7e 70 3a 46 c0 36 bc 7d c9 c5 3b a8 41 43 3b
       0.0009174176 -0.01115424 0.006035982 0.0029793773
000100 6e 25 08 bc 77 63 05 3c cd b8 26 3c 1e b6 09 bc
       -0.008309705 0.00814139 0.010175896 -0.0084052365
000110 34 89 5f bb d1 73 66 3b b8 67 d7 bb 17 29 83 bb
       -0.003410888 0.0035164247 -0.0065736435 -0.004002701
000120 d3 65 00 bc c7 e9 7c 3c d4 30 c8 bb ae 82 41 39
       -0.007836777 0.015436596 -0.0061093364 0.00018454596
000130 14 e9 e7 3b b2 b7 81 3b 84 d5 b0 bb d5 a7 a9 bc
       0.0070773456 0.0039586658 -0.005396547 -0.020709911
000140 1b 46 64 bc 7e 1c 69 ba 0a 4b 49 bc de aa 04 bc
       -0.01393273 -0.00088924903 -0.012285957 -0.008097379
000150 04 a7 c4 3b 85 1c a4 3a ce 45 28 bc fb 55 c6 3c
       0.006001355 0.0012520707 -0.010270549 0.02421092
000160 04 5a 88 bc 8c f5 55 bc cd c2 7e 3a e4 01 0e 3c
       -0.016644485 -0.013059031 0.00097183586 0.008667443
000170 42 27 a0 ba e6 4c 1e bc bb bb d3 3c 4f 43 70 bc
       -0.0012218731 -0.009661889 0.025846353 -0.014664485
000180 fa 17 8a b9 83 59 31 bc 3e 45 63 bc 45 b8 85 3c
       -0.00026339275 -0.010824564 -0.013871489 0.016323218
000190 67 d7 10 bc e0 7b 89 3a 14 d2 09 bc 42 a3 fa bb
       -0.008840418 0.0010489188 -0.008411903 -0.0076488564
0001a0 6a 61 28 ba 2d 8b 87 3c 45 85 8d 3c 7d cf 27 bc
       -0.0006423207 0.016545856 0.017275462 -0.01024234
0001b0 b1 51 03 bc 8e 60 b4 3a a4 94 b7 bb 25 13 4e 3a
       -0.008015082 0.0013761686 -0.005602436 0.0007861129
0001c0 c5 24 63 bb b9 ea 21 bc 1e 52 b9 bc 1c 40 67 39
       -0.0034659368 -0.009882622 -0.022622164 0.0002205376
0001d0 f2 c2 a2 3c 66 c5 34 bc bb d4 51 bc e4 2a 19 bb
       0.019868348 -0.011033392 -0.012807067 -0.0023371512
0001e0 71 2b 81 bb 6c 30 71 ba 33 13 39 bc d9 a2 5f bc
       -0.003941946 -0.0009200636 -0.011296081 -0.013649666
0001f0 06 17 a4 bb 73 68 55 3d dd 7f fe 3b dc 6f fc bb
       -0.0050076274 0.052101564 0.0077667073 -0.0077037644

sequential/d1/MatMul/ReadVariableOp/transpose f4 [64, 1152]
000000 c8 25 c2 3d dd 98 0b 3b dc c0 8a 3d e0 85 fa bc
       0.094798625 0.002130083 0.06775066 -0.030581415
000010 e6 71 4b bd 0a 9d b5 bc 9d 94 08 3d d0 b6 e1 bb
       -0.04966917 -0.022169609 0.033344854 -0.006888248
000020 e5 83 55 bd e0 55 80 bd ec 65 18 3d a4 32 82 bd
       -0.052127738 -0.06266379 0.037206575 -0.06357315
000030 46 df cb 3c 49 f0 41 3b 9d bf 4d bd fc 27 e1 3d
       0.024886739 0.0029592684 -0.050231565 0.109939545
000040 50 8c d7 3b 06 df 64 bd b0 8e 5b bc f2 6d 7a 3d
       0.006578006 -0.055876754 -0.013400719 0.06114001
000050 ca 27 25 3d 97 4f b7 bd c8 60 b9 3c a0 59 52 bd
       0.04032115 -0.089507274 0.022629157 -0.051355004
000060 df 5d a8 3d 22 f2 3a bc 37 5d a9 3b 64 96 80 3d
       0.082210295 -0.011410268 0.005168583 0.06278685
000070 03 4c 8b 3d 44 50 22 bd 0c c7 98 3d 34 a2 e2 3d
       0.068016075 -0.03962733 0.0745984 0.11066094
000080 9c aa c7 bc 31 59 40 3d 95 e7 10 3b da 91 d4 bb
       -0.024373345 0.04696006 0.002211069 -0.0064871134
000090 96 bd e3 bc 83 4e 35 bd cf 7e bd 3d 44 94 96 3d
       -0.027800363 -0.044264328 0.092527024 0.07352498
0000a0 d5 be b9 bc b8 82 0e 3c bf 83 2b 3d df 18 09 3d
       -0.022674004 0.008698158 0.04187369 0.033470985
0000b0 a8 49 78 bc 0e aa a0 3c 60 df a8 bc 17 cb 11 bd
       -0.01515428 0.019612338 -0.020614326 -0.035594072
0000c0 f7 9a 9b 3c 6d 67 17 3d a1 28 f0 bb 30 5d 7e 3c
       0.018994791 0.03696387 -0.007329062 0.015525147
0000d0 c2 a8 83 bd 06 27 df bc c9 1d 91 3d ee b4 fd bc
       -0.064286724 -0.027240288 0.07085759 -0.030970063
0000e0 12 82 fc 3c fc 8c 86 3c de 38 0e 3d 1e f3 28 bd
       0.030823741 0.016424648 0.0347222 -0.04124748
0000f0 b5 87 e3 bc 99 33 b7 bc 04 f0 df bc e1 11 09 3d
       -0.027774671 -0.02236347 -0.027336128 0.033464316
000100 e2 5a 5b 3c f1 77 63 bd 53 eb 64 3c 80 99 17 bb
       0.013388367 -0.055534307 0.013972121 -0.0023132265
000110 39 d8 99 bb c3 eb 13 3d 38 66 4b bc 38 a2 2e 3d
       -0.004694965 0.03611351 -0.012414508 0.042635173
000120 8f 3e e1 bc ef 68 10 3c 5c 49 43 3d da 1a 3a 3d
       -0.02749565 0.008814081 0.047677383 0.045435764
000130 b9 71 a4 3d 6c 19 60 3c ee 28 c8 bc 03 2b 9d bd
       0.080295034 0.013677936 -0.02443358 -0.076742195
000140 14 3d c0 bc e3 53 76 39 9c ff 01 3d bf a8 b8 bc
       -0.023466624 0.00023491638 0.03173791 -0.022541402
000150 2b 7f b7 3d 64 be 47 bd 5e a2 b1 bd 70 83 73 bd
       0.08959802 -0.048765555 -0.08673547 -0.05945152
000160 91 86 d5 3c 0c ab 2c bc 97 4f 30 3d 7d f9 04 3d
       0.026065143 -0.010538828 0.043044653 0.032464493
000170 7e 70 ff bc 69 c3 b3 bc f7 2c 05 3e 1f e0 9a bd
       -0.03118157 -0.021943765 0.13005434 -0.07562279
000180 e6 d6 a6 3d aa 8b 68 3d dc 31 4a 3d 54 bf b6 3c
       0.081464574 0.05677382 0.049363956 0.02230803
000190 0f cd 96 3c 71 34 79 3d 37 ff c7 bb 39 e6 07 3a
       0.018408326 0.060841028 -0.006103422 0.0005184147
0001a0 39 d5 d5 3d 8a 59 86 bc 47 0a 66 3d e1 22 12 bd
       0.104410596 -0.016400117 0.056162145 -0.035677794
0001b0 19 bd 88 3b f6 81 73 3d e3 95 3f bd 16 b6 fa 3c
       0.004172933 0.059450112 -0.046773802 0.030604403
0001c0 8f 21 6c bd 2f 7d 6a bb 28 93 9e bd 3f f9 e3 bc
       -0.05764919 -0.0035780182 -0.077429116 -0.02782881
0001d0 0d 12 67 bd cd 08 8f bd 3a e3 34 bc 4f 4e d3 3c
       -0.0564137 -0.069841005 -0.011040503 0.025794176
0001e0 f0 f0 0d bc 29 79 33 bc 02 6d 0a 3d 68 e4 04 3d
       -0.008663401 -0.01095418 0.033795364 0.032444388
0001f0 c6 70 f3 3d f5 e3 a4 bd e1 b3 4b 3d ed 0d 88 bd
       0.11886744 -0.08051292 0.049732093 -0.06643281
000200 c1 48 44 3d 4a 7b e0 bc 87 0b 65 3d c1 3e 60 3d
       0.047920946 -0.027402539 0.055919196 0.054747347
000210 21 4c 36 bd 53 5a 3b 3d 84 61 66 3d 16 90 8a 3b
       -0.044506196 0.045740437 0.056245342 0.004228602
000220 a6 ee 59 bd 3b a1 a6 bc 0c 94 ce 3d 6b 8c 8a bd
       -0.05320611 -0.020340553 0.100868315 -0.06765064
000230 60 bc a5 3d c3 02 df 3c f7 6c 3a bd 6e 71 41 3d
       0.0809257 0.027222997 -0.045514073 0.047227316
000240 a6 b9 01 3c 50 93 15 bd b2 75 a6 3d 68 f6 a9 3d
       0.007917797 -0.03651744 0.08127917 0.082989514
000250 bc 7d 2f bd 7b 22 d2 bc 18 2b 8e bd 32 7c b8 3c
       -0.04284452 -0.025651207 -0.06941813 0.022520158
000260 2c 74 ac bd 68 30 d3 3d 87 c1 0a bd 23 a9 d8 3d
       -0.084205955 0.10311967 -0.03387597 0.10579135
000270 22 90 3f bd e5 9a 3b bd e4 e2 01 3d 7d 63 3d 3d
       -0.046768315 -0.045802016 0.03171052 0.046237458
000280 4d 96 7d bd 20 2b f8 3b 41 18 76 bd 23 27 cc 3c
       -0.061910916 0.0075735003 -0.060081724 0.024921006
000290 c6 6c 8d bd a6 ec 66 bd a4 d6 84 bd 76 e9 b9 3d
       -0.069055125 -0.05637803 -0.06486252 0.09077732
0002a0 58 10 c6 ba e8 fe be 3c c1 da 98 3d b6 fc 4d 3d
       -0.0015111072 0.023314908 0.07463599 0.050289832
0002b0 9d 3c 4f 3c d7 54 c8 3c 72 e0 64 3d bb 45 11 3c
       0.012648729 0.024454517 0.05587811 0.008866723
0002c0 d2 5d f3 3c 5d 4c 6b 3d 00 eb b7 bd a9 36 89 3d
       0.029707823 0.057445873 -0.089803696 0.06699879
0002d0 4b 83 6c 3d f2 20 3b bd c6 1d 9b bc 19 4e 07 bd
       0.0577424 -0.045685716 -0.018935096 -0.033033464
0002e0 26 dc 4b 3c 41 b5 04 3d 88 13 12 3d 01 80 ad bd
       0.012442624 0.03239942 0.035663158 -0.084716804
0002f0 f2 cd 7a bd 5d 38 aa bc 45 26 51 bd e0 13 97 3d
       -0.06123156 -0.02077883 -0.051061887 0.07376838
000300 0e b5 c5 3d 0b ff 41 bd 24 25 2f bd 73 7d 80 3d
       0.09653674 -0.04736237 -0.04276003 0.062739275
000310 30 6e 87 bc 2e 08 d5 3c 15 4c c7 bc c9 25 b8 bb
       -0.016532034 0.026004877 -0.02432827 -0.0056197387
000320 b3 ef 9e bc 4f fb f6 3c 04 90 49 3d cc 69 66 bd
       -0.019401407 0.03014913 0.04920961 -0.05625324
000330 29 f5 f2 3b 4e 56 9c bc d4 90 47 bd de e6 bf bc
       0.0074144793 -0.019084122 -0.048722103 -0.023425516
000340 6a c0 70 3d 70 00 87 3d 80 21 80 bb 80 94 36 bd
       0.05877725 0.0659188 -0.0039102435 -0.044575214
000350 6d 0b 18 3d 3b 72 9e 3d 0a 4f 73 bc ea 21 3c bd
       0.03712027 0.077366315 -0.014850387 -0.04593078
000360 40 f0 80 3c 5c ae 95 bb 00 9f a0 3d 05 80 a5 ba
       0.01573956 -0.0045679044 0.07842827 -0.0012626654
000370 6e be 8d 3c 99 ad 42 3c 53 11 5e 3d e8 dd 85 3c
       0.017302718 0.011882209 0.05421574 0.016341165
000380 3d 6f aa 3d 8a 1d 19 3d 60 47 2d 3d 53 1d 67 3c
       0.08321998 0.037381686 0.042304397 0.0141061125
000390 b3 7f a1 bc 3a 9d 02 3d 10 b2 40 bd ab 7a 44 3d
       -0.019714212 0.031888224 -0.047044814 0.047968548
0003a0 48 6b df bd d6 bd a1 3d 80 e4 ca ba e0 f7 fa 3c
       -0.10909134 0.078975365 -0.0015479475 0.030635774
0003b0 4b 96 45 bd f1 3f d6 bc 53 e3 a0 bd 10 e0 0a bd
       -0.048239034 -0.026153537 -0.07855859 -0.03390509
0003c0 90 49 20 3d 96 3e d7 3b 5c 4d 16 bd c2 ea 2e bd
       0.039132655 0.00656874 -0.03669487 -0.04270435
0003d0 d4 d6 82 bd 67 5a 2e bc 13 c0 1d bc 18 f7 65 3d
       -0.063886315 -0.010641671 -0.009628314 0.05614385
0003e0 49 27 b0 3c 54 16 63 bd c9 d5 bf bd 3b 69 32 bd
       0.021503108 -0.055441216 -0.09366948 -0.043557387
0003f0 43 79 b8 bd 73 b4 9f 3d 2b 96 91 bd 33 16 2a 3d
       -0.09007504 0.0779809 -0.071087204 0.041525077

sequential/d1/MatMul_bias f4 [64]
000000 a6 99 5a 3c 09 64 e2 bb 63 5f 90 39 47 65 34 ba
       0.013342297 -0.006908898 0.0002753689 -0.00068815466
000010 b0 19 91 3b 54 97 a8 bc d2 ba 80 b9 db b2 9f bb
       0.004428111 -0.020579971 -0.00024553254 -0.004873616
000020 00 fb 2b 3c 5a 0f 16 3c 08 6b 94 bc f7 86 d4 bb
       0.010496855 0.009158934 -0.018117443 -0.0064858156
000030 a9 d0 10 3c 11 6d 40 bc 11 fd 92 3c c7 0e 50 3c
       0.008838811 -0.011744753 0.017942937 0.012698836
000040 51 da 8f bb c8 e1 83 3c 8e fe 76 3b 63 b6 9f bc
       -0.004390039 0.016098872 0.0037688348 -0.019496148
000050 5f 80 75 3c 17 26 54 3c 89 58 06 bc 83 2c 8c ba
       0.014984219 0.012948534 -0.008199819 -0.0010694418
000060 ca c5 79 3c 73 72 ee bb 29 a9 be 3b be eb 15 3c
       0.0152449105 -0.007276827 0.0058185053 0.009150444
000070 c6 8d 03 3c 39 ca 91 3b 9a f7 48 ba 09 42 dd 3a
       0.008029407 0.0044491556 -0.000766629 0.0016880642
000080 32 59 a6 bb 43 32 a3 bc 31 30 06 bc 5f ce 05 bc
       -0.005076551 -0.019921428 -0.008190201 -0.0081668785
000090 f9 b4 e0 bb 17 98 20 bb 60 a4 25 3c fa 09 d4 bb
       -0.006857511 -0.0024504715 0.010109991 -0.006470916
0000a0 a7 d6 b3 bc 7a 23 4a bb d0 29 5e bb e1 8e d0 3b
       -0.02195294 -0.00308439 -0.0033899434 0.0063646887
0000b0 1f 00 aa 3a 1a 17 14 bc 19 c1 8f 3c 04 ea c7 b9
       0.0012970007 -0.009038711 0.01754813 -0.00038130593
0000c0 c1 f0 b9 3b 89 a8 99 3b 67 9c 94 3b 95 12 1a bc
       0.005674452 0.0046892804 0.004535246 -0.009403844
0000d0 cc 00 7e 3c 11 ad 8b bb 48 a7 0b 3b 1b 87 e7 bb
       0.01550312 -0.0042625745 0.0021309424 -0.0070656664
0000e0 7c c5 af bc 5a e8 14 bc 78 49 f9 bb ba 2b a5 3b
       -0.021456473 -0.0090886 -0.007607635 0.005040613
0000f0 f5 62 e0 bb fb f5 8c 3c 7d 58 e2 3b 6e c9 55 3b
       -0.006847734 0.017207136 0.0069075213 0.0032621282

sequential/d2/MatMul/ReadVariableOp/transpose f4 [36, 64]
000000 20 35 60 be d0 ed da bd 79 ed 32 3e 8a 01 4d 3e
       -0.21895266 -0.106898904 0.17473401 0.20020118
000010 b3 ed 14 bd 41 ed 16 be 16 bc 05 3e 39 58 e4 bd
       -0.0363595 -0.14738943 0.1306003 -0.1114964
000020 bf 71 a1 bd 3d 08 81 be 80 e6 a4 3d 8b 47 5c 3e
       -0.078830235 -0.25201598 0.08051777 0.21511666
000030 da 9e 0c be 42 1b 01 3e 23 07 6d 3d bd c0 5a 3d
       -0.13732472 0.12608054 0.057868134 0.053406466
000040 6d 43 64 3d 66 86 4b bd 5c ec 43 3e 49 e6 37 be
       0.055728365 -0.04968872 0.19133133 -0.1795894
000050 fe eb 64 bd 16 5e 02 3d d7 ae 54 3d 36 44 16 3d
       -0.055889122 0.03182801 0.051924553 0.036686145
000060 90 c2 9d 3b cb 2c 00 be 4b a7 16 be 78 92 9d bd
       0.0048144534 -0.12517087 -0.14712255 -0.07693952
000070 e8 c9 43 be 30 4a 2c be fa cc 89 3d b8 92 0d 3e
       -0.1911999 -0.16825175 0.06728549 0.138255
000080 92 ef d3 bd 77 06 47 3e 34 1a 42 be a0 74 6c 3e
       -0.10348429 0.1943606 -0.18955308 0.23091364
000090 4e ed 24 be 6c 78 e8 3c 21 41 cb bd 91 0a 02 3e
       -0.1610615 0.028377734 -0.09924532 0.12699343
0000a0 51 48 8e 3d 54 e0 92 bd 18 8e 72 bd 78 35 84 bd
       0.06947387 -0.071716934 -0.059217542 -0.06455511
0000b0 51 d6 4c be 5b 4f c4 3d 08 5f 12 3e 9c d4 8d 39
       -0.2000363 0.09585448 0.14294064 0.00027052022
0000c0 34 43 4d be 09 3f b8 bd f2 52 7f bd f9 d0 35 3e
       -0.20045167 -0.08996398 -0.062334962 0.17755498
0000d0 79 0e 57 3e 33 f6 a9 bd 2b 3a 0e be 3f ea 81 be
       0.21001615 -0.08298912 -0.13889377 -0.25374028
0000e0 96 cd 3d 3e 0c e3 64 3d ae 12 3c 3e 90 cf 51 be
       0.18535456 0.05588059 0.183665 -0.20489335
0000f0 ca b1 90 bd 33 d7 4e be 13 87 27 3e 47 e3 c5 3c
       -0.070651606 -0.2019928 0.1636012 0.024156226
000100 ab 50 d9 bd 1c 5b 9a bd 88 9d 76 3d b5 17 99 3d
       -0.10611089 -0.07536909 0.060208827 0.07475225
000110 16 e6 1b 3e a1 47 07 bd bf 3f 20 be 42 d6 12 3e
       0.1522449 -0.033027295 -0.15649317 0.14339545
000120 28 66 90 bd 9b 8c 86 bd b9 0a 26 be 93 e5 4c 3e
       -0.07050735 -0.06569787 -0.16215028 0.2000945
000130 54 8e 3d be 41 ca a1 bd b3 1c 3d be 9b 92 77 be
       -0.18511325 -0.07899905 -0.18467979 -0.2417702
000140 ff 92 3d 3b 48 ad 44 be 55 87 f6 bd 62 01 2d be
       0.0028926728 -0.19206727 -0.12037531 -0.16895059
000150 8a ea d9 3d 15 65 df 3c 60 4c e6 3c 1c cc 7e be
       0.10640438 0.02726988 0.02811259 -0.24882549
000160 10 7a 10 be e8 af 53 be 25 d9 bf 3d aa 6d bf bd
       -0.14109063 -0.20672572 0.09367589 -0.09347089
000170 4e 50 33 3e b8 b3 8a 3e 26 a2 07 3e 3e 0b e3 bd
       0.17511103 0.2709024 0.13245448 -0.11086129
000180 aa 67 64 3d ba 2e 22 bd 59 4a 5e 3e 6b d6 f7 3d
       0.055762924 -0.039595343 0.21708049 0.12101444
000190 1c 13 05 be 4b 63 6a be 9a 77 0d 3e 56 f3 19 bd
       -0.12995571 -0.2288944 0.13815156 -0.03758558
0001a0 be 75 40 3e c7 a2 65 3e 0d 37 4c 3d 75 b7 97 3b
       0.18794915 0.22425376 0.049857188 0.004630024
0001b0 8b 57 05 be 44 c4 6e 3e 8e dc 6e be 6f d0 06 be
       -0.13021676 0.23317057 -0.23326322 -0.13165449
0001c0 e1 1e 5d bd 46 29 57 3e e6 96 8c be 27 d9 13 ba
       -0.053984527 0.21011838 -0.27458876 -0.0005639963
0001d0 d0 f0 52 be da 5f 0f 3e 7b d9 2d be d4 e4 64 be
       -0.20599675 0.14001408 -0.16977493 -0.22352916
0001e0 e1 be 47 be d4 3e e6 3b 99 29 56 be 26 1f 1d bd
       -0.19506408 0.0070265327 -0.20914306 -0.038359784
0001f0 f7 14 19 3d 54 15 7f 3e 72 d7 87 3d ae bb 3b 3e
       0.03737351 0.2491048 0.0663289 0.18333313
000200 33 1d c7 bc 57 29 f1 3d d2 5e 98 bd cc a7 a7 bd
       -0.024305915 0.11775463 -0.074399605 -0.081863016
000210 75 81 0f be 42 18 fc 3d fe 2f 3a 3e f5 9c 08 3d
       -0.14014228 0.12309314 0.1818237 0.03335281
000220 3b 44 84 3d ed e4 aa bd 02 ee c1 3c 84 7a 87 3d
       0.064583264 -0.083444454 0.023673061 0.06615165
000230 08 79 45 be e6 76 2f 3e 9b df a9 3d c1 ef 82 bc
       -0.19284451 0.171352 0.082946025 -0.015983464
000240 8d 0a 78 bd 32 52 10 bd 21 dc 8d be 96 e1 e5 bd
       -0.060556937 -0.035234638 -0.27707008 -0.11224668
000250 dc 77 2b 3e a7 a2 ba bd 23 5e 8f bd 2d aa 65 3e
       0.16744941 -0.09113055 -0.07000377 0.22428198
000260 a3 2a 82 be f2 fc 02 3e 25 52 08 be 83 a3 2e be
       -0.25423154 0.12791803 -0.13312586 -0.17054562
000270 e4 e3 af 3d b3 47 64 3e ab 7f ea 3d f8 52 00 3e
       0.085883886 0.22292976 0.11450132 0.1253165
000280 1f ee f2 bc da a5 11 3e e1 2a ed ba 5a 32 ef 3d
       -0.02965456 0.14223424 -0.0018094444 0.11679526
000290 15 17 45 3e a4 53 27 be 6b 11 e0 3d b8 b6 0b 3d
       0.19247086 -0.163405 0.10940822 0.0341098
0002a0 3e 40 86 bd c9 dd 38 be d7 3d 49 3e 89 25 19 be
       -0.06555222 -0.18053354 0.19652496 -0.14955725
0002b0 08 c1 97 bc ae 4b c5 3d d4 4e da bd 9c 02 0f be
       -0.018524662 0.096335754 -0.106595665 -0.13965839
0002c0 52 59 ad bd 8b 45 4d be e0 2c 15 3e cb 70 2e be
       -0.08464302 -0.2004606 0.145679 -0.17035215
0002d0 1e 58 fd bd 98 48 08 3e 3a 56 1b bd 15 12 e4 ba
       -0.12370323 0.13308942 -0.03792403 -0.0017400408
0002e0 dc 18 c5 bd 51 5e de bc 2f 83 50 3e 67 e2 bf 3d
       -0.09623882 -0.027144583 0.20362543 0.09369355
0002f0 fe 63 c3 bd cb cd 44 3e 45 e2 fe bd e0 09 34 3e
       -0.09540556 0.19219129 -0.12445501 0.17581892
000300 a0 d5 2a 3e e8 8d 35 3e 45 38 16 bc 0f 9e b3 3c
       0.16683054 0.17729914 -0.009168689 0.021925954
000310 ac 17 b7 bd af 53 56 3e af ac 8b 3e e9 45 04 bd
       -0.08940062 0.2093036 0.27280185 -0.032293234
000320 83 24 9e be ce a0 8e 3e 0a a8 11 3d dc 4a d6 3d
       -0.3088723 0.2785706 0.035560645 0.10463497
000330 fb 6d 49 be 6e d2 54 be 03 2e 5a be c1 00 32 be
       -0.1967086 -0.20783398 -0.21306615 -0.173831
000340 ff 61 46 be 80 db 2d bd 57 43 1c bc ee c1 b7 3d
       -0.1937332 -0.04244566 -0.009537539 0.08972536
000350 93 c9 09 3e 28 15 fa 3d 12 ee fd 3d c8 8e 3b 3c
       0.134558 0.122110665 0.12398924 0.011447616
000360 86 0b a2 be 55 66 c0 3c ba 11 dd 3d 39 3c 55 3e
       -0.31649417 0.023486296 0.10794397 0.20823754
000370 7b 11 bc bd 39 55 e8 bd 21 56 1e be 8b 91 23 3e
       -0.09183022 -0.1134438 -0.15462543 0.15973489
000380 a9 32 1c be 08 37 0f be 26 d2 af 3d b9 3b d6 3d
       -0.152537 -0.13985837 0.085850045 0.1046061
000390 b6 d9 24 be 75 0d 21 3d 62 e3 50 be ab 4d 68 3e
       -0.16098675 0.039319474 -0.2039924 0.22685878
0003a0 4e 05 5f be e9 87 8d bd a0 ad fd bd 46 0f 5c bd
       -0.21779367 -0.069106884 -0.12386632 -0.053725503
0003b0 be 83 5c be 28 db e7 3d f9 8d 8c bd 3e 4e 67 be
       -0.2153463 0.113210976 -0.06863017 -0.22588441
0003c0 cb 69 71 be 0e 55 95 bc df 80 db bd 75 83 7d be
       -0.23575513 -0.018229034 -0.107179396 -0.24757178
0003d0 98 60 7d bd 00 73 ee 3c 22 7c 04 3e 1f 4c e4 bd
       -0.061859697 0.02910757 0.12937978 -0.111473314
0003e0 d3 fb 22 3e 20 40 d5 3a ce 9b 33 be b3 cd 15 3e
       0.15916376 0.0016269721 -0.17539904 0.1462925
0003f0 e3 10 61 3e 40 50 26 be b3 84 96 3d 94 b5 90 3c
       0.21979098 -0.1624155 0.07349529 0.017664708

sequential/d2/MatMul_bias f4 [36]
000000 c1 4a cd 3c 17 5e 48 3c 38 ae 04 bd e6 3b 89 3c
       0.02506006 0.012229464 -0.03239271 0.016752195
000010 07 49 30 3c cb bb a1 bc f4 5e c6 bc bd d1 a3 bc
       0.010759599 -0.019742867 -0.024215199 -0.019997472
000020 ce a4 4e 3c 77 40 1e 3d af ac 42 3c 0f e4 a5 3c
       0.012612535 0.038635697 0.011881991 0.020250348
000030 98 ae fc 3b 87 0f b0 3b 76 be 89 3c a8 a7 1f bd
       0.007711243 0.0053729448 0.016814452 -0.03897825
000040 3b ae 87 39 10 59 31 bc b0 bb c6 ba 76 29 98 3c
       0.00025879018 -0.010824457 -0.0015162136 0.018574458
000050 7f 82 cc bc 15 01 0a 3c 0d 63 44 3c ed ec 12 3b
       -0.02496457 0.00842311 0.011986506 0.002241905
000060 6a 8e bf 3a 71 38 41 bc 63 e9 43 bc 7f 3c ad bb
       0.0014614586 -0.011793242 -0.011957499 -0.0052867527
000070 91 1e 8e bc 47 fa 91 ba 42 45 81 bb 56 91 b8 3b
       -0.01734856 -0.001113721 -0.0039450238 0.00563256
000080 65 8e 22 bc 7d 08 b3 bc 84 02 f2 bc ee 35 04 bd
       -0.009921645 -0.021854633 -0.029542215 -0.032277994
