CNN/model/exchar74k_cnn.tflite (tflite, 677932 bytes, 10 tensors)

sequential/conv1/Conv2D/ReadVariableOp f4 [1, 3, 3, 32]
00000000: 0936 12be 1344 e63d 24c0 a23e 70fe 74bc
00000010: 08cc d93c fe98 883d d615 84be ddae 06be
00000020: 8c32 013d 24a2 853c b2ac 323e 74b8 e5be
00000030: 84f9 6bbe 5895 c43d 7b01 a5be dc32 2bbc
00000040: 16cd 36be 5901 373e 4313 05be 0f50 0ebf
00000050: 124d 0c3e 5653 99be b34e 6cbc 35da 1abd
00000060: 2b52 fc3d 1805 cc3d 8344 10bc 6519 a73d
00000070: e020 a5be e1b7 1fbd 7536 2abe afd4 4fbe
00000080: e4c1 08bf 5ca9 113e a3ea c9bd ed5c 81bd
00000090: 6d31 523e 2407 2e3c 7be0 3f3d a729 55bd
000000a0: 22af 12bd 95e6 8d3d e6b8 073e adc4 bebe
000000b0: 1321 7dbe 1379 2c3c 7200 99be 9fda 963d
000000c0: 3fe0 37be 1aef 973e 2012 1a3c bbf8 afbe
000000d0: 86fd 663e a14c a2bd 5089 32be bf80 113d
000000e0: f01a ae3d e5d2 333d 31fd 973e ad74 683c
000000f0: e073 af3e 2d9e 8f3e f765 833d bca2 a4bd
00000100: d729 1c3e bedf bcbb 59f8 5ebe 39a6 01bf
00000110: 8f84 333d eee1 2e3c 367c 53bc e248 27bd
00000120: ed6c 5e3d 6497 cd3d 4075 833e c49c 4cbb
00000130: f508 dcbe 3876 463d 85bf 69be ee1a 623d
00000140: 7676 a1bc 2e9f 383e 6383 1bbe 4a1c fcbd
00000150: 24cb 0bbe 80ef 8e3d 4024 98be b4f7 0ebe
00000160: 963c 693e 3dc0 873e ec90 153e a2ec 76bd
00000170: 6351 893e d3e9 9abe 9dd4 fabd a663 5b3c
00000180: e216 293e cb67 8f3d 3eaf 203e 8d33 133e
00000190: e23e e63d a958 4cbd 3bdf 62bd c7f2 b7bc
000001a0: 5322 89be b67b c93c 2166 4c3e 2838 1abe
000001b0: 2ec3 a73c 6e5e 3d3c c5cc 84bc 05f7 7d3d
000001c0: 97a9 35be 1522 9ebc d033 d53d 9822 9ebe
000001d0: 4f0a 0abe 278e c0bd 0a4b e43d a0f4 7c3d
000001e0: 7a8d 88bd 2bb4 ad3c 2ff6 bdbe fab3 44be
000001f0: c19e fdbe c6a9 4dbb 4072 1fbd 72c5 85bd
00000200: 47fd 92be 077f c73d fd46 583c 0586 dc3c
00000210: dce4 1b3e 0dae 85bd 2fe6 2e3e 79ca b2be
00000220: fac4 babb 89f3 183e 235d 933d ae61 da3c
00000230: 8d91 0fbe f105 1b3e 6f67 493e 427e 5f3c
00000240: d78f 95be abd9 57bc bc2b 0a3e 31b6 6e3e
00000250: 6042 08be f7ab 603e 85e7 c53d 61c1 003e
00000260: ba75 c6bd 44fd 8abe 458e 283e 4bff 603d
00000270: b735 86be e09e fa3d 9e26 b2bb 9db1 c6bd
00000280: 6511 4ebe 9e64 dd3c fe9b cbbe 334c f83c
00000290: 398d 42be 8fe0 d33d eee7 053e 9b11 ca3b
000002a0: 08e9 30bd 2fe4 b93d f3e1 97be 59d2 dc3d
000002b0: 8903 cfbd 2fdc 87bd ab8e d53d 3a53 8c3d
000002c0: 0638 23bd e503 05bd 0366 b0bc a336 333e
000002d0: 245a 253d ef76 ee3d 1a7a 93bd bf09 813c
000002e0: 7b5a 22bd 16a1 b5be df8f 763e aade 67bd
000002f0: 6700 403d 6200 fcbd ca71 a7bd 3b7e 83be
00000300: 084a f73e 1f07 6b3d 87f3 693c 15e4 26be
00000310: 1c8d 1cbe f646 4fbe 4f84 bebd aeea ec3c
00000320: 8e23 26be 85bf eb3d 39c0 903d c47b fb3d
00000330: 85c3 203e b4cc c5bc 6759 2d3e 153f a53d
00000340: ef6c 09be b624 18be 5f7a b63d dc27 1abe
00000350: 4027 87be 7074 8ebd c4b4 7b3c 3070 68bd
00000360: 1426 a8bb 8365 4abe 7150 ebbe 894e 2cbe
00000370: 75c5 913e 2219 613d 55d4 333d 8990 383e
00000380: 0559 4ebd 6cd4 9e3d 3748 51be ce86 b1be
00000390: 5aa3 d4be 490b c5bd 709f 5e3d a3b6 393e
000003a0: 3678 9e3d 3663 95bd f88b cdbe 9374 873e
000003b0: a93e 913e 8357 cc3d 578f 2d3d 5d4b fd3d
000003c0: 9cf3 8a3e 6f44 e6be 2f57 473e 429a f63c
000003d0: 3e92 94be e8fd e93d 30ed e83d 9685 e13d
000003e0: d38c c4bd 918f abbd dd6d 52be b93d cc3d
000003f0: 3255 debe a0bf 0fbe 32c0 843d bf9f 143e
-0.14278425 0.11243453 0.31787217 -0.014953241 0.026586547 0.06669806 -0.2579791 -0.13152643
0.031542346 0.016312666 0.1744869 -0.4486729 -0.23044401 0.095987976 -0.32227692 -0.010449138
-0.17851672 0.17871608 -0.12995629 -0.5559091 0.13701275 -0.29946393 -0.01442306 -0.037805755
0.1232036 0.09961909 -0.008805397 0.081591405 -0.32251644 -0.03899372 -0.16622336 -0.20295976
-0.53420854 0.14224762 -0.098592065 -0.06316552 0.20526667 0.01062182 0.04684494 -0.052041676
-0.03581155 0.06928746 0.13254127 -0.37259427 -0.24719648 0.010526913 -0.29883152 0.073659174
-0.17956637 0.29674608 0.009403735 -0.34369454 0.22557649 -0.07924772 -0.17435193 0.035523172
0.08501232 0.043902297 0.29685357 0.014187974 0.34268093 0.28050366 0.064159326 -0.080388516
0.15250336 -0.005763977 -0.21774425 -0.5064426 0.04382759 0.010673983 -0.012908032 -0.04084099
0.0543031 0.10038641 0.25675392 -0.003122137 -0.42975584 0.048452586 -0.22826965 0.055201463
-0.019709807 0.18029472 -0.15186839 -0.12310083 -0.13651711 0.06979275 -0.29715157 -0.13961679
0.22777018 0.26513854 0.14606065 -0.060284264 0.26819906 -0.3025652 -0.12247584 0.013390457
0.16512635 0.07002219 0.1569185 0.14375134 0.11242463 -0.04988924 -0.05538867 -0.022454632
-0.26784 0.024595123 0.19960834 -0.15060484 0.020478811 0.011558158 -0.016210923 0.062003154
-0.17740475 -0.019303361 0.10410273 -0.30885768 -0.13480495 -0.094021134 0.11147125 0.06175673
-0.066676095 0.021204075 -0.37101886 -0.1920928 -0.49535182 -0.003138171 -0.038927317 -0.065318
-0.2870886 0.097410254 0.013200519 0.026919374 0.15224022 -0.06527338 0.17079996 -0.349201
-0.005699751 0.14936651 0.07195499 0.026657905 -0.14020367 0.15138985 0.19668363 0.013640942
-0.29211304 -0.013174455 0.13493246 0.23311688 -0.1330657 0.219406 0.096632995 0.12573768
-0.09690423 -0.2714635 0.16460522 0.054930966 -0.26212856 0.12237334 -0.0054367324 -0.09701846
-0.20123823 0.027025517 -0.3976745 0.030309772 -0.18999185 0.103455655 0.13076755 0.0061666495
-0.043190986 0.09076726 -0.29664573 0.10782308 -0.10108096 -0.066337936 0.104276024 0.06851812
-0.03984835 -0.032474417 -0.021533018 0.17501311 0.040369168 0.116437785 -0.072010234 0.015751718
-0.03963707 -0.3547446 0.2407832 -0.056608833 0.046875384 -0.123047605 -0.081760004 -0.25682244
0.4829867 0.057379838 0.014279253 -0.16297944 -0.15288204 -0.20241913 -0.093025796 0.028920498
-0.162245 0.11511139 0.070679136 0.12279466 0.15699585 -0.024145462 0.16928636 0.080686726
-0.13420461 -0.14857754 0.08910059 -0.15054268 -0.26397133 -0.069558024 0.015362922 -0.056747615
-0.0051314924 -0.19765286 -0.4595981 -0.16826834 0.2847096 0.05495561 0.043903667 0.18023886
-0.050377864 0.0775536 -0.20437704 -0.3467316 -0.41530877 -0.09621293 0.05435127 0.18136077
0.07737772 -0.072943136 -0.4014585 0.26456127 0.28368118 0.09977629 0.042373028 0.1236789
0.27138984 -0.44974086 0.19466852 0.030102853 -0.29017824 0.11425382 0.11373365 0.110118076
-0.095971726 -0.083769925 -0.20549722 0.0997271 -0.43424374 -0.14037943 0.06481971 0.14514063

sequential/conv1/Conv2D_bias f4 [32]
00000000: 089b 05bc 9b97 11be 4d8f 813d 38f7 8b3e
00000010: 72d3 75bd 55e3 53be 8fde 1cbe 703f 7abd
00000020: 4208 a1bd 0c24 69be f33f eebd 8732 e2bc
00000030: 43bd 8dbb c3c4 08be 64d8 aeba 6556 1fbe
00000040: 7340 c73c dd71 fabc 0d2e f2bd 68b0 2b3d
00000050: e71a 283d 7372 31be dd7a 0abe 1b6c 10be
00000060: d73a 2dbd f48b 83bc d424 80bd 36da 2ebe
00000070: 3f88 9dbb 62d2 ccbd f4ab 38be 9257 a3bd
-0.008154638 -0.14217989 0.063261606 0.2733705 -0.060016103 -0.20692189 -0.15319274 -0.061095655
-0.07862903 -0.22767657 -0.11633291 -0.027611984 -0.0043255403 -0.13356309 -0.0013339636 -0.155603
0.024322724 -0.030571872 -0.1182519 0.04191628 0.04104128 -0.17328815 -0.13523431 -0.14103739
-0.042292442 -0.016057946 -0.062570244 -0.17075428 -0.0048075016 -0.10001065 -0.18034345 -0.07975687

sequential/conv2/Conv2D/ReadVariableOp f4 [64, 3, 3, 32]
00000000: 7f55 853e 1c57 93bd d444 003e 531f d8bd
00000010: 0c23 a33d 9fe0 14bd 4933 50be 804f 9fbe
00000020: 92a3 2fbe a574 fcbd 849c 813e 3544 c5be
00000030: 4a4c f0bc 117d ecbc 9c47 83be 93ae b5bc
00000040: 01b0 82be 8801 873d 43ad f1bd ef6f 78be
00000050: 005e 243d bc84 a0be 1580 2dbc 6839 0b3b
00000060: 184d f53d c25d 92bd d954 25bd 040c bfbd
00000070: c269 b9bd cd7a 393e 6839 10bc b7a3 ca3d
00000080: 5772 ffbd 32fc 2dbe 126a 95bd 558c cbbc
00000090: f7b1 4bbd de80 3fbd eab3 88bd 55e1 a33d
000000a0: 74ea 233b e796 c2bd b91e 2e3d 9085 b03d
000000b0: 2bd4 d73b 42cf 69bd 07bf 82bd 69dd 36be
000000c0: 9747 f93d 332b b439 1c72 d4bd 3a6b f73d
000000d0: 8899 2fbd 0cb3 e73c ea60 5dbe 515b d4bd
000000e0: aa71 303d 21a4 01bd b33a 573d f935 e43c
000000f0: 53ce a9bd 795d c0bc 70aa 91bd 3179 06be
00000100: aea7 3fbe de10 49bc 84dd 493c 09dd 98be
00000110: 8dac c53a 3d02 be3d f1c8 f43d 4c75 f5bb
00000120: 7767 1a3d 5bec a43d e0a8 a13d 34c2 ba3d
00000130: 77dd 653c 25fe 983d 06ec 42bc d660 373c
00000140: c317 bb3d 7619 3d3d 2357 2e3d 9296 2a3e
00000150: 69fb 81bd 3c2a 7f3d 0434 9c3b 4a6a 38bc
00000160: be4c 893d 567d 89bc 31d0 653d bc56 883d
00000170: c27b 19be 7c8b 89ba a910 563d 72ac c3bd
00000180: b368 243e 531c 31bd 62b5 823d ad57 9abd
00000190: 034e 663d 74a6 f53c b028 f8bd 1fc6 843c
000001a0: b031 cbbd 301a fdbd affb 2c3e 905a dfbc
000001b0: c1c1 1fbb 94d5 e8bd 3ac5 cd3d c004 2bbe
000001c0: 2db7 30bd ce3e 3c3e b795 e6bd c1eb 7bbd
000001d0: 7852 ea3b 82df fabd 12ce 1f3d 745f 15bd
000001e0: 73d6 a13d c1e3 c93c 0b6f 7f3c 6eff 6fbd
000001f0: 8760 6e3d 2b19 483e 80d9 31bd 35d9 cd3d
00000200: 093c f3be 979c babc 0d0b a4be b9b5 06be
00000210: cc4a a4be e647 a4bd 360c bcbc 5273 5d3d
00000220: 6e9a 093e d2e2 9dbd 8d1c f3be 9234 113e
00000230: 51e9 b33d fca5 dcbc 1f01 c43d c8ae 3f3c
00000240: 9405 013e 6ae1 e6be 1ab7 9fbc 8734 be3d
00000250: 2f33 c9be bce7 c73d b0b4 1bbe c696 15bd
00000260: 5608 0fbf 0906 02be 52d5 bf3d 73da edbc
00000270: 84a9 0bbf 2cef 95be eda4 553d 4745 aebe
00000280: 9ff3 bfbe 134e 6f3d a581 c0bc 9899 4cbe
00000290: cc91 173d b792 90bd 5b79 28bd ad70 99bc
000002a0: 3699 2abe 44b8 2f3d 7f91 083e 3a8d d73d
000002b0: cf44 f3bd 0f64 6bbd cdc0 bdbd 882a 84bd
000002c0: 3ec6 893d 16ef d1bd 8a64 8d3d f002 27bd
000002d0: 910e f8bd 8cd3 0dbd 1daf 03be 8895 e2bc
000002e0: ca83 0b3d 9cef 98be 1142 99be 1e70 093d
000002f0: 889c c6be b4f0 f03c a116 32bc a035 0abd
00000300: b091 71bd 0653 7ab8 7c73 59be 13f1 11be
00000310: a242 babd c948 58bd 6b52 21ba 7593 0e3e
00000320: 4a99 eb3c ab74 fabd d7ff 20be acff 0b3d
00000330: 7728 283e 66d9 0b3c 81d5 7b3d 5c5f 62bc
00000340: 8541 d83b a5b2 15bd 0b53 7fbc ed94 0b3e
00000350: a680 b4bc 8f99 8e3d d2e0 e63d 42d4 6dbc
00000360: 4910 f3bd 6f34 0fbe d253 a63b dd5b 55bc
00000370: 091a 8dbe ca59 84ba 38e1 363d a41e c43d
00000380: 162e edbe 3828 743c 2149 f9bd 2e24 f3be
00000390: 3ac5 083d 8cca 5d3d e0e1 e23d 9799 a83d
000003a0: 4938 9ebd c9ad 70bc bd9c df3d 6861 373e
000003b0: 2c0a a2bc 18f0 adbd ab07 15bd 88e3 803d
000003c0: d320 92bd 59ef 003d 5c84 1a3e 40d7 8a3d
000003d0: 978e b2bd 39c1 e13d 9ac9 4bbd 8d8c 7bbc
000003e0: f27d 84bd ed0e d7bc 1ff9 28be 26b4 f73c
000003f0: 78e9 afbe 6acf 63bd 10f4 b43c 1e7c 8cbd
0.2604179 -0.07194349 0.12526256 -0.105528496 0.07965669 -0.036347028 -0.20332064 -0.3111534
-0.17152241 -0.12326936 0.25314724 -0.385286 -0.029333252 -0.02886823 -0.2564057 -0.02217797
-0.25524905 0.06592089 -0.11800625 -0.2426145 0.040128708 -0.31351268 -0.010589619 0.0021243934
0.11977595 -0.07146789 -0.04036412 -0.09328464 -0.09053375 0.18113251 -0.008802749 0.098945074
-0.124729805 -0.16990736 -0.07295622 -0.024847189 -0.049730267 -0.046753757 -0.06674941 0.08001963
0.002501157 -0.095014386 0.04250977 0.08619225 0.0065865717 -0.057082422 -0.06384092 -0.17857899
0.12171858 0.0003436446 -0.10373327 0.12080999 -0.04287103 0.028283618 -0.21619001 -0.1036898
0.04307715 -0.031650666 0.052546214 0.027857767 -0.08291306 -0.023482071 -0.071125865 -0.13132168
-0.18716308 -0.012272088 0.01232088 -0.29856136 0.0015081331 0.09277771 0.11952389 -0.0074907895
0.037696328 0.08052894 0.078935385 0.091190726 0.014029852 0.07470349 -0.011897093 0.011192521
0.091353916 0.04616686 0.04256357 0.16659 -0.06346781 0.062296137 0.004766943 -0.01125581
0.067040905 -0.016783398 0.05610675 0.06657168 -0.14988616 -0.001049384 0.052261982 -0.09554376
0.16055565 -0.043239903 0.06382252 -0.07536254 0.05622674 0.029986598 -0.121171355 0.016207753
-0.099215865 -0.123585105 0.16892885 -0.027264863 -0.002437696 -0.11368862 0.100473836 -0.1670103
-0.04314344 0.18383333 -0.112590246 -0.06150413 0.0071509443 -0.12249662 0.039014883 -0.036467984
0.07902231 0.024644734 0.01559044 -0.058593206 0.058197524 0.19540851 -0.043420315 0.100511946
-0.4750674 -0.022779746 -0.3203968 -0.13155259 -0.32088315 -0.08021526 -0.022955041 0.054065056
0.13437817 -0.07709278 -0.4748272 0.1418021 0.08784736 -0.026934616 0.09570526 0.011699386
0.12599784 -0.45093852 -0.01949649 0.092873625 -0.39296862 0.09760997 -0.15205646 -0.036520742
-0.55872095 -0.12697615 0.093668595 -0.029034829 -0.54555535 -0.29284036 0.05215924 -0.3403723
-0.37490556 0.058424067 -0.02349932 -0.19980466 0.037004277 -0.07059234 -0.04113136 -0.018730486
-0.16660008 0.04290034 0.13336752 0.10524984 -0.118783586 -0.05746847 -0.092652895 -0.06453425
0.06727265 -0.1025068 0.06903942 -0.040774286 -0.12112153 -0.034625575 -0.12859769 -0.027659193
0.03406123 -0.29870307 -0.29933217 0.03355419 -0.387913 0.029411651 -0.010869653 -0.033742547
-0.05897683 -5.9681966e-05 -0.2123546 -0.14252119 -0.090947405 -0.05280379 -0.0006153944 0.13923438
0.028759617 -0.12229284 -0.15722595 0.034179375 0.16421686 0.008535719 0.06148291 -0.013816681
0.0065996074 -0.03654732 -0.015583764 0.1363103 -0.022034 0.06962883 0.1127335 -0.014515938
-0.118683405 -0.13984846 0.00507591 -0.01302239 -0.27558926 -0.001009756 0.04464838 0.09576157
-0.46324223 0.014902167 -0.12172151 -0.4748854 0.033391215 0.054148242 0.110782385 0.0823242
-0.07725579 -0.014689871 0.10918567 0.17908251 -0.019780241 -0.0849306 -0.036384266 0.06293398
-0.07135167 0.03147826 0.15089554 0.06779337 -0.08718603 0.110231824 -0.04975281 -0.015353334
-0.06469335 -0.026252234 -0.16501282 0.030237269 -0.3435781 -0.055617727 0.022089034 -0.06859611

sequential/conv2/Conv2D_bias f4 [64]
00000000: 8713 16be 687b 17bd 8ace afbd e201 28bd
00000010: ba6e c6bc a642 2cbe a98b 9dbd 21ff 35be
00000020: f1e7 243d 83f0 31bd 03fd 2e3d dfb3 0abe
00000030: fa14 c6bc b363 a4bc 3e59 acbd 90dd abbd
00000040: 26b7 cabd 919d 39bd 4e22 0abe 1e4a 9cbd
00000050: 7962 1abe 6ffe ccbd 3d97 36bd b3b6 8bbd
00000060: 23cb e7bc a2c3 0cbd 63a3 0abe 5c3c 1cbe
00000070: 69f5 9bbc 6903 a73d e8da 8cbc 2326 193d
00000080: 8f41 56bd 6c05 6ebd 6820 bdbd f56a 05be
00000090: 7293 9bbd b644 b4bd 6535 22be d44e 00bd
000000a0: 8b02 ac3c 37d3 57bd 3b72 88bd 9345 49bd
000000b0: 0f2c 1cbe 11e0 7e3d 8ace febd 08b1 7cbd
000000c0: 72be f1bd b223 63bd a9d2 283d 38f1 a2bd
000000d0: b6c0 37bd 1394 63bd 7d3a cebd 13d1 6c3e
000000e0: 32bf a1bd ef96 92bd a37a e5bd 819a d8bd
000000f0: 41bd 01be 3202 cbbb e96a 8fbd be4c ddbc
-0.14655887 -0.036982924 -0.08584316 -0.04101742 -0.02422272 -0.168223 -0.07692654 -0.17773105
0.04026026 -0.04344226 0.04272176 -0.13545178 -0.024179924 -0.020067072 -0.08415459 -0.08391869
-0.09898214 -0.045316283 -0.13489649 -0.07631324 -0.15076627 -0.10009467 -0.044577826 -0.068219565
-0.028295105 -0.034366257 -0.1353889 -0.152574 -0.01903792 0.08154947 -0.017194226 0.037389886
-0.052308615 -0.05811064 -0.092346966 -0.13029082 -0.07596482 -0.08802168 -0.15840681 -0.031325176
0.020997306 -0.052691665 -0.06662413 -0.049138617 -0.15251182 0.062225405 -0.12441738 -0.061692268
-0.11803903 -0.055453964 0.041216526 -0.07956165 -0.044861518 -0.055561136 -0.100697495 0.2312663
-0.07897796 -0.071576945 -0.11205032 -0.10576344 -0.12669851 -0.00619533 -0.07002813 -0.027014133

sequential/conv3/Conv2D/ReadVariableOp f4 [128, 3, 3, 64]
00000000: ab97 16bd 053b 6f3d 04f9 8abc 92f1 923b
00000010: eeb4 03be cc75 bc3d 7a81 8c3b 028d bfbd
00000020: c20c c6bb 1d43 45bd 6316 293e 2a6c 8b3e
00000030: e6f9 e3bd 8039 66bd f765 13be 6514 15be
00000040: df4e 14be 2bb0 66be 2e42 84bd d762 51bb
00000050: d315 013d 1802 2abd 9c6a 48be b838 21bd
00000060: 516a cbbc 4ab6 21be 138b e0ba 374a c039
00000070: 5d1b df3d c6c9 f53c adec 153d fd28 b4bd
00000080: 7155 2dbe fb85 763d db06 21be b552 72be
00000090: 449c 9dbc d0cb 11bc 8bcd f53d c071 abbd
000000a0: ffe0 1b3e 5b4e 343d 1e05 483e 8897 85bd
000000b0: 49e4 2cbc b7e3 c13c 7145 c1bc a9d6 b2bc
000000c0: b169 e0bd 081a 6e3b 40a2 c03c 6755 9f3d
000000d0: 5a9a 173d 4837 ce3d 5dd0 21bd 81e9 b5bd
000000e0: 4a98 af3d c61b 27bd ec84 04be b125 7a3d
000000f0: 1e54 f03b 5d6b eebd a316 b9bd e7a5 fa3c
00000100: 1b53 e63d 91de 17bd fb54 183d 18d0 6cbc
00000110: 7cd4 233d 18ac bfbc e21a a83c 1524 b13d
00000120: 58e4 8cbd 8037 cb3c b3e1 ac3d 43c8 dfbc
00000130: cebb d8bc 94b4 36bc b118 bf3d e2ff 89be
00000140: 39a8 30be 6013 16be fb37 5dbd b9ee 6a3d
00000150: 2225 cb3d c5c6 a4be 14eb 90bd 0a45 c2bc
00000160: 79ca 4dbb fc86 5b3d 9192 b9bd 6409 65bc
00000170: 5803 ff3d 5471 9a3c 9a28 85be a2ef 02be
00000180: a33b 08be 29e2 59bd 21d8 87bd 9d7d f93c
00000190: 07f9 00be 4337 103c 42e0 e2bc 1351 863d
000001a0: 3655 06b9 1990 c03c a4bd f3bb 3293 68bd
000001b0: 58a3 a3bd 9ae6 a9be 1431 923a aa3d 22bd
000001c0: e27a a63c 6f70 dbbd 4723 553d 1bc0 81be
000001d0: 7e49 6fbe 7955 873d 6b1f 893d 21c4 c1bd
000001e0: 332b 25bd e2a7 58bc 914d e9bd 41e2 abbd
000001f0: 1533 bdba 873b 09be 0a01 35bd 76a1 ddbc
00000200: 75d3 733e caec 833d 9072 ae3d 9bbb 793b
00000210: 819b 223e 6a50 11bd 7056 dd3d dd66 a13e
00000220: 6169 933d 65fe 833d 0888 ecbd f7d2 933a
00000230: fdb4 933d 1517 8b3c a768 d53c edab a9bc
00000240: 9cfd cd3d ec0f 593e aca0 d43c 41f8 1ebd
00000250: a6a4 ac3d 78f9 643d b0b6 843e 935a d03d
00000260: 0e37 d93c 51dc 9abd 0630 b239 e5f5 263e
00000270: 6771 5c3d f792 fc3b 7b2a e4bd 174e b7be
00000280: c99e a73e fc35 ee3d 4663 0c3c cd9b 173e
00000290: d23e ee3c 1823 2cbe 9bb8 d2bc c0bd 483d
000002a0: 1306 b5be e11a 2dbc c8ec 31be a7a9 c03c
000002b0: 7c5a 783e 3d76 c5be 836e ca3d c43b f03d
000002c0: 6dd0 263e 2a96 0b3d 8cbb b63d 8d38 33bd
000002d0: f1b8 d6bd 616e cc3d 50de a03e 8870 01bf
000002e0: 8a92 6ebd a7a4 533e f685 0ebe 7718 913d
000002f0: f5ee e03d 2b58 bd3d 5260 003e 9d7c 3ebc
00000300: 82de 93bd 5c17 df3d 4ada e13d 5936 85bc
00000310: 9ef7 70be 7f5a 363d 4ffe 233e 3752 8ebc
00000320: 182e c83d 7345 3abd 3085 613e 854c 2e3e
00000330: 0318 93be 46f0 20bd e558 3e3d ebce 3d3d
00000340: 6914 7ebe 7915 dcbd f256 7e3d ef51 5cbd
00000350: 0b9d c53d 8311 00bd dcd2 65be ba43 d7bd
00000360: 35ff 12be 1eec 2f3d ffcf efbd 317e 01bd
00000370: 11af 05bd 509e aa3d b233 9cbe e3e7 1cbe
00000380: 30e3 21be 35fa 02bd f182 52be 362d 88b9
00000390: 44a9 cfbd cbb3 013e f7ce f03d 04a1 bfbe
000003a0: c7b9 88bd b4a5 8b3d f1ab d03d 1be8 a9be
000003b0: a9e4 bdbd 19f6 80bd 3f73 0dbe b324 3bbe
000003c0: e16f 10be 6bde 12be 65ce 48bb 2de1 efbd
000003d0: 970e c2bd 72ae a73d feb9 70be 7c3b 7bbc
000003e0: 6dec c3bd 14ee a93c 212a 7fbd 9dfc d8bd
000003f0: 741b 8bbc 2edb d6bd 2411 8ebe a316 e3bc
-0.036765736 0.058405895 -0.016964443 0.004484364 -0.12861988 0.092021555 0.0042878957 -0.09353067
-0.0060440013 -0.048159707 0.16512446 0.2723096 -0.11131649 -0.05620718 -0.14394365 -0.14558561
-0.14483212 -0.2252814 -0.06457935 -0.0031949782 0.031514954 -0.041505903 -0.19571918 -0.03936073
-0.024830969 -0.15792194 -0.0017131291 0.00036676388 0.10893891 0.03000344 0.036602665 -0.087968804
-0.16927125 0.060186367 -0.15725271 -0.23664363 -0.019239552 -0.00889869 0.12002095 -0.083713055
0.15222548 0.044020038 0.19533202 -0.06523043 -0.010552474 0.023668153 -0.023592683 -0.021830874
-0.10957659 0.0036331434 0.023514867 0.07779961 0.037012435 0.10069138 -0.03950535 -0.08882428
0.08573969 -0.04079797 -0.1294133 0.0610711 0.0073342463 -0.11641572 -0.09037521 0.030596687
0.1124632 -0.03707749 0.03719042 -0.01445391 0.039997563 -0.02339749 0.020520631 0.0864946
-0.068794906 0.024806738 0.08441486 -0.027317172 -0.02645674 -0.011151452 0.093308814 -0.26953036
-0.17251672 -0.14655828 -0.054008465 0.05735657 0.09919192 -0.321829 -0.070760876 -0.023714561
-0.00314012 0.053595528 -0.090611584 -0.01397929 0.1245181 0.018852867 -0.2600754 -0.12786725
-0.13304 -0.0531942 -0.0663302 0.030455405 -0.12594996 0.008802238 -0.027694825 0.065584324
-0.0001281098 0.023506211 -0.0074383784 -0.056781 -0.0799014 -0.33183748 0.0011153542 -0.03960959
0.020322267 -0.107148044 0.052035596 -0.25341877 -0.23367879 0.066080995 0.066954456 -0.09461237
-0.0403244 -0.01322362 -0.11391748 -0.08392764 -0.0014434779 -0.13401614 -0.044190444 -0.02705453
0.23811133 0.06441648 0.08517945 0.0038106206 0.15879633 -0.03547708 0.10807502 0.3152379
0.07197834 0.06445006 -0.115493834 0.0011278082 0.07212255 0.01697878 0.026050879 -0.020711863
0.10058138 0.2119748 0.02595552 -0.038810972 0.08429842 0.055901974 0.2592063 0.10173526
0.02651551 -0.07561553 0.00033986586 0.16304739 0.053819086 0.0077079493 -0.11140915 -0.35801765
0.3273833 0.116313905 0.0085685905 0.14805527 0.02908269 -0.16810262 -0.025722792 0.049009085
-0.35356197 -0.01056549 -0.17375481 0.023518397 0.24253267 -0.3856677 0.0988436 0.117301494
0.16290446 0.034078754 0.089224905 -0.043755103 -0.104844935 0.099819906 0.3141961 -0.50562334
-0.05824522 0.20668279 -0.1391829 0.070847444 0.109830774 0.09245332 0.12536743 -0.01162639
-0.07220174 0.10893127 0.110279635 -0.016261267 -0.23531958 0.044519898 0.1601498 -0.017373187
0.09774417 -0.04547639 0.22023463 0.17021377 -0.28729257 -0.039291643 0.046471495 0.04633991
-0.24812473 -0.10746283 0.062094636 -0.053789075 0.09649094 -0.0312667 -0.22443718 -0.10510965
-0.14355166 0.04294979 -0.11709594 -0.031614486 -0.03263766 0.08330977 -0.3050819 -0.15322833
-0.15809321 -0.031976897 -0.20557763 -0.00025973626 -0.10139707 0.12666242 0.117582254 -0.37427533
-0.06676059 0.06818715 0.10189045 -0.33184895 -0.09272129 -0.062969394 -0.13813494 -0.18275718
-0.14105178 -0.14342658 -0.00306406 -0.11712871 -0.09475439 0.0818757 -0.2350845 -0.015334006
-0.09566579 0.020743407 -0.062296037 -0.10595057 -0.016980864 -0.10491024 -0.27747452 -0.027720755

sequential/conv3/Conv2D_bias f4 [128]
00000000: 2bbe 0c3d 3088 ffbc b911 6ebd affd 99bc
00000010: e063 80bc 3cdf 3bbd b65c afbd 75ae 323d
00000020: 7515 c5bb 744b 74bd 78c2 2abd 040b 56bd
00000030: 66ae 0cbd d88d 17bc 355f c9bd ca48 cebb
00000040: 759d 83bd d41a 00bd 5690 81bd bbd6 9dbc
00000050: f8a2 69bd b6d8 b83a b614 813d 9f4b 95bc
00000060: b522 273d a3e6 763d b26a 87bd 79a6 903c
00000070: de7c 50bd 8e59 38bc 3b03 a83c a6a5 4bbd
00000080: 1bd1 4dbc ca9e 8fbd 30d4 3cbd ce34 17bc
00000090: 1f2c a13c c70d 24bd 7bd4 87bd ace6 0e3d
000000a0: 4540 6b3d fbbb c7bb 7bc5 15bd 8c49 8cbd
000000b0: 4132 76bd ce58 e1bd a5b4 ae3c a398 30bc
000000c0: 9d99 a9bc c241 82bd 86ad a4bb c5bf 3cbd
000000d0: d048 d3bd 9958 1dbd cfd5 13bd de49 4fbd
000000e0: efd5 3cbc d530 2fbd 5c10 2a3c 571a 49bc
000000f0: d23a 8ebc 63b1 843d 0846 53bc 4e7f 0fbe
00000100: e767 c9bd e11b 2abd 085e e53c c7a4 86bd
00000110: 06af bdbd 2233 e23d e6d7 6ebd 895d 15bd
00000120: 8e0f 87bc 638d dbbc d98a 2bbc ee15 56bd
00000130: 4b2a 27bd 2e3e 40bd 0a2b b3bd 561e a1bd
00000140: 7092 beba ffa8 9bbc 3072 233c 988f 6dbc
00000150: c9eb 313d 1115 0cbd 2251 e0bc 8d15 9a3c
00000160: bf3d ccbc fb18 8ebd 228a 3ebd 2092 1dbd
00000170: 6a79 b4bd 987a 6ebd b548 c1bd 66d9 96bc
00000180: 1f00 50bd 2098 9abd 020d 0ebd 9c68 df3a
00000190: 0051 f4bc 9a66 77bc 225a 0abd 957d 24bd
000001a0: a1e6 84bd 52f0 a33b b873 41bd 5621 26b9
000001b0: ba39 003c 8d8d 57bd bcec dcbc 102b 103d
000001c0: 5d79 45bd 3961 b0bd b115 7cbd 6af8 e6bc
000001d0: f5e7 33bd 5aa7 83bd 989f c23d 4a7a c9bd
000001e0: 7ffd d0bb c8ec bbbd 6cf6 2bbd c8e8 c8bd
000001f0: 74c0 1cbd cffd 2fbd df80 c2bd da3f 72bd
0.034361046 -0.031192869 -0.05812237 -0.018797724 -0.015672624 -0.04586719 -0.08562605 0.043623406
-0.006014521 -0.05964227 -0.041689366 -0.0522566 -0.034346007 -0.009250127 -0.098326124 -0.006295298
-0.06426517 -0.031275585 -0.06326358 -0.01926743 -0.057040185 0.0014102671 0.063027784 -0.018224536
0.040804584 0.060278546 -0.066121474 0.017657505 -0.050900333 -0.01125182 0.020509353 -0.04971852
-0.012562062 -0.070127085 -0.046100795 -0.009228898 0.019674359 -0.0400522 -0.06632324 0.034887955
0.05743434 -0.006095407 -0.036565285 -0.068499655 -0.06010652 -0.11003266 0.021326372 -0.010778579
-0.020703131 -0.063601986 -0.0050255684 -0.046081323 -0.10316622 -0.03841457 -0.036092576 -0.050607555
-0.011525615 -0.04277118 0.010379877 -0.012274346 -0.017362032 0.06479146 -0.012895115 -0.14013407
-0.09834271 -0.041530494 0.02799894 -0.065743975 -0.09261899 0.11044909 -0.058311366 -0.036466155
-0.01648691 -0.026800817 -0.010470116 -0.052267008 -0.040811818 -0.0469343 -0.087484434 -0.07867114
-0.0014539491 -0.019001482 0.009975955 -0.014499567 0.043437753 -0.034199778 -0.027382437 0.018809104
-0.024931787 -0.069383584 -0.046518452 -0.038469434 -0.088122204 -0.058222383 -0.09437696 -0.01841421
-0.050781365 -0.07548547 -0.034680374 0.0017044726 -0.02982378 -0.015100146 -0.033777364 -0.040158827
-0.064893015 0.0050030136 -0.0472295 -0.00015843412 0.007826263 -0.052625228 -0.026968352 0.035197318
-0.048211444 -0.08612294 -0.061544124 -0.028194625 -0.043922383 -0.06428404 0.09503096 -0.09837778
-0.0063778753 -0.09176022 -0.041983053 -0.098100245 -0.038269475 -0.04296666 -0.094972365 -0.059142925

sequential/d1/MatMul/ReadVariableOp/transpose f4 [64, 1152]
00000000: 7bab 9b3d c9ef 283d a4c0 183b dab9 083e
00000010: 42b4 6dbd 12b9 2c3d 80ae 10be fe1b 60be
00000020: 59d4 8cbb ce3c 46bd d807 823d fa8d cdbd
00000030: de34 2abe 59b2 753c 7ed5 06bd b779 423c
00000040: e485 093d 2309 0ebe 3e59 a83d 8532 073e
00000050: 0b89 1f3e f0f0 003e 4eaa 2abe 1d85 cb3d
00000060: 2cfd 0c3d c367 2bbe 5c36 a23c f5e4 48bd
00000070: 84b6 493e da3c 553d a9e0 1dbb d6b7 84bd
00000080: 1889 e03d bc06 bfbd 456d 543e 5c18 5a3e
00000090: c21d 61be b628 f23d 604c e13d be8b 923d
000000a0: 247f fabd bce0 333e d860 0c3e 4d97 293e
000000b0: 3df3 af3d cafd b7bd ad6c 72be fa7e 183d
000000c0: fa16 203e 04db 313e 3c3e 05be 4d43 8abc
000000d0: b376 12bc 1c91 91bc 20e3 58bd 1e44 3bbe
000000e0: bc78 033e 4e81 683d f353 a0be 78d5 c7bd
000000f0: 67ac 203d c997 d2bd bfe9 513e e3de bf3b
00000100: 560d 2ebc 7f50 17bc 5e58 8fbe 5ed4 9b3c
00000110: e918 15be 7b0e 19be 4cd0 10bd 8902 123b
00000120: 52c9 5c3d e30e 51bd 240f 53bd b2d2 0b3c
00000130: 7b03 04be 8659 c33c 9dba 9dbe 5ac0 0dbd
00000140: f079 593d 93e7 6a3c 5275 74bd 57f6 b93c
00000150: 9b0b 1b3e 40c6 80bd c784 693d b4d4 96bd
00000160: ba34 8b3b 6aaa ea3d 9ab8 7ebc ca38 953c
00000170: 4328 97be 6fc8 2b3d 8751 85bd c49f c8bc
00000180: 4f33 7d3c 7150 c9be 2ff0 3e3e f044 94be
00000190: 613d 10bd 6dad ffbb 4821 f4bd d423 003e
000001a0: 1e1b e8bd 9af8 063e 01cf 14bd 9e4b 463a
000001b0: ac0e c63d 1e67 163e 09c0 2f3e d049 28bd
000001c0: b4e1 1abe 56bd 86bc 1217 45bd 3f90 893c
000001d0: 61b5 8b3c bd6a 42be aca1 9b3d 7594 27be
000001e0: cbdc a6bd 2190 54be a151 573e 2f4e e9bd
000001f0: c2f3 bd3d 84e9 073e 5c21 0fbe f6d7 a6bd
00000200: d7ad ed3d 47e2 eabd 9876 3d3c 5a71 19bd
00000210: dd93 dbbd f0ab 943d 7c60 96bc 560c 56bd
00000220: cac2 19be f56b 25bd 60e2 523b 921e 183e
00000230: 3a63 a8be 8b98 2fbd 7839 fdbb aa9c 9c3c
00000240: 1f94 043e 2f52 093e ce42 d4bd 6a1a 1d3d
00000250: f7e9 bd3d cec1 aebd a8d3 ecbd f7a3 49be
00000260: cafe 12bc 7693 233e f79d a1bd 275e 40bc
00000270: 4981 c53d a327 233e 1d38 febb f79b b3bd
00000280: a8d3 f1bd a1b8 a3be 2726 24be 1577 45bd
00000290: 5d65 553d 3018 3ebe d5cf 90bc 31f1 8cbe
000002a0: 5357 f73d d9f7 a83d d4ca 8ebd 4fb6 8bbc
000002b0: 72eb d43d 725b 653d c5d3 083d 507a 8e3b
000002c0: 056f 75bd add9 cc3d 1ac4 71bc 05d8 78be
000002d0: 556e 72be 2643 a53d 9767 163d 9a5c 3f3d
000002e0: 3117 0d3d fa94 693d 747e 58be 4692 d83d
000002f0: a5bd 58bd 06d5 8c3c 1fa2 33be d05a 58bc
00000300: a215 8cbd d0ed 753d f271 b5bd 187c 803e
00000310: b3e8 0bbe 61c8 5fbd 4a4b f63d 6af9 0c3e
00000320: 9a45 b5bc 6ac7 aebc 2084 dfbb 5ca1 0f3c
00000330: 1702 d63c 8995 113d 1d6c 063d 78bf 57bd
00000340: b168 a8bd ec20 c13d f34f 7e3d 66d6 67be
00000350: 7fb5 0d3e f94e d8bd 0386 a1bd cb06 503d
00000360: 284c 3f3e 8b49 d93d 4c11 86bd 47c4 8dbd
00000370: 21c5 24be d0ee 833d 8db1 aebc 4818 993d
00000380: 63bf 86bc 7216 44be 3d13 023e deb3 bebe
00000390: 27d8 2ebd cdec 0fbe f752 b63d c9e0 eb3d
000003a0: 6072 3dbd e352 33bd 5ff3 473e 73a6 2f3e
000003b0: 7c99 673d 0f4e 91bc f0ff 0e3e c96c dd3b
000003c0: 1d59 23bc 8af8 2bbe b3e2 8c3d 6e6c 343e
000003d0: 89a3 13bd 8b41 abbd 5783 443e d479 2dbd
000003e0: 5dfe 553e 00df e0bd dcfa 093e a5fc e03d
000003f0: a8d2 ce3d f6f7 aabc 924d dfbc deee 693d
0.07601067 0.041244302 0.0023308182 0.13352147 -0.058033235 0.042168684 -0.14129066 -0.21885678
-0.0042977748 -0.04839783 0.06349152 -0.100368455 -0.1662173 0.014996135 -0.032918446 0.011869839
0.033574954 -0.13870673 0.082201466 0.13202865 0.15579621 0.1259191 -0.16666529 0.09937499
0.03442113 -0.167388 0.019801311 -0.049046475 0.1969853 0.052059986 -0.0024090207 -0.064803764
0.109636486 -0.09327456 0.20744808 0.21298355 -0.21984008 0.11824171 0.110008955 0.0715556
-0.122312814 0.17566198 0.13708818 0.16561623 0.08591316 -0.08983953 -0.23674269 0.03723047
0.15633765 0.17368704 -0.13012022 -0.016877795 -0.008939433 -0.017769389 -0.05295098 -0.18287703
0.12839025 0.05676394 -0.31314048 -0.09757513 0.039226916 -0.10282857 0.20499323 0.0058554276
-0.010623297 -0.0092355 -0.27997106 0.019022163 -0.14560284 -0.1494693 -0.035354897 0.0022279343
0.05390293 -0.051039588 -0.05152811 0.00853412 -0.12891953 0.023846399 -0.30806437 -0.03460727
0.053094804 0.014337438 -0.059682198 0.022700472 0.15141146 -0.06287813 0.057011392 -0.07364789
0.004248229 0.11458285 -0.015546942 0.018215556 -0.29522905 0.041939195 -0.06509691 -0.024490245
0.015454127 -0.39319184 0.1864631 -0.28958845 -0.035214785 -0.0078026564 -0.119204104 0.12513667
-0.11333297 0.13180771 -0.036330227 0.00075643684 0.09670767 0.14687774 0.171631 -0.041086018
-0.15125161 -0.016447704 -0.048117705 0.016792415 0.017054262 -0.1898603 0.07599196 -0.16365226
-0.08147582 -0.20758106 0.21027233 -0.113918655 0.09275009 0.13272673 -0.1397757 -0.0814666
0.11605423 -0.1146894 0.0115639195 -0.037461616 -0.10721562 0.07259357 -0.018356554 -0.05225786
-0.15015712 -0.04038616 0.0032178387 0.14855412 -0.32888204 -0.042870086 -0.007727798 0.019117672
0.12947129 0.13410257 -0.103643045 0.03835527 0.09273141 -0.08533059 -0.11563808 -0.19691454
-0.008971879 0.1597422 -0.078914575 -0.011741198 0.096438 0.15933089 -0.007758154 -0.08769982
-0.11807948 -0.31976798 -0.16030179 -0.04820927 0.05209862 -0.18563914 -0.017677227 -0.27527764
0.12077203 0.08250398 -0.0697228 -0.017054705 0.1039647 0.055995412 0.033405084 0.004348077
-0.05992033 0.10002456 -0.014756227 -0.24301155 -0.23674901 0.08069448 0.036719885 0.04671917
0.034445945 0.05702684 -0.21141988 0.105747744 -0.052915234 0.017191421 -0.17542313 -0.013205245
-0.06840064 0.06004125 -0.08859624 0.25094676 -0.13662986 -0.054634456 0.12026079 0.13767019
-0.022127915 -0.021335322 -0.0068211704 0.008766498 0.026124043 0.035543 0.03281795 -0.052672833
-0.08223093 0.094301075 0.062087964 -0.2264038 0.13838767 -0.10561938 -0.07886889 0.05078773
0.18681395 0.1060973 -0.06546268 -0.069222026 -0.16090824 0.06442034 -0.021324897 0.074753344
-0.016448682 -0.19149187 0.12702651 -0.37246603 -0.042686608 -0.14055176 0.08902543 0.11517484
-0.046251655 -0.04378022 0.19526432 0.17153339 0.05654286 -0.017737417 0.1396482 0.006757353
-0.009969977 -0.16794029 0.06879177 0.17619488 -0.03604463 -0.08362111 0.19190727 -0.042352512
0.20897813 -0.10980034 0.13474602 0.10985688 0.10098773 -0.02087019 -0.027258668 0.057112567

sequential/d1/MatMul_bias f4 [64]
00000000: f210 8cbd 046b b8bb 012c f9bc 12d9 23bd
00000010: 796b 913c 1d00 313d 46f6 6c3c fae8 74bc
00000020: 60c4 03bc 12c5 793c 30cf 22bc 71f4 2a3d
00000030: c14f 46bd fe93 883d 2b95 b3bc b1cb b2bd
00000040: b3cf 893c 12b5 1dbd beff 5abd 60e5 983d
00000050: d10a 16bd 7203 b6bd da6e dd3b 5f5f 023c
00000060: 7096 283d 7d60 72bc e184 d9bd fdc9 39be
00000070: cb01 f9bc 0a60 9fbc bb3b 80bd 072c 17bd
00000080: 7ac6 243c 3420 48be 2897 45bc 2b91 4bbd
00000090: 66ba 1ebd de09 ba3d 870b 653c 218e 093c
000000a0: 698b a6bc 6e3c 02be d506 3d3d 3a13 bd3c
000000b0: edb3 a0bc 3be5 443d 113d 313d 42bf 07bc
000000c0: 0565 14be 4f4f b7bd e3d0 a0bd 7327 573d
000000d0: 43f8 ceba d699 02be 0242 05bd 046d 9abd
000000e0: c2aa 95bc 0a96 703d 6691 36be e1b6 9b3d
000000f0: dee7 983c d5c5 043c 3919 e7bd ce99 f7bc
-0.068391696 -0.0056279916 -0.03041649 -0.040001936 0.017751442 0.043213 0.014463013 -0.014948124
-0.008042425 0.015244739 -0.009937093 0.041737024 -0.048415903 0.06668852 -0.021921715 -0.08730257
0.016822672 -0.03850276 -0.05346655 0.07465625 -0.03663141 -0.08887376 0.0067575993 0.007957309
0.041159093 -0.014793512 -0.10621048 -0.18143459 -0.030396363 -0.019454975 -0.06261393 -0.036907222
0.010057086 -0.19543535 -0.012059964 -0.04969899 -0.038751982 0.09083913 0.013979799 0.008395703
-0.020330148 -0.12718365 0.046149094 0.023080457 -0.019617045 0.048070174 0.043271128 -0.0082853455
-0.14491661 -0.08950674 -0.07852342 0.052527856 -0.001579054 -0.12753996 -0.032533653 -0.07540324
-0.0182699 0.05873684 -0.17828903 0.07603241 0.01866525 0.008103807 -0.11284108 -0.030224707

sequential/d2/MatMul/ReadVariableOp/transpose f4 [36, 64]
00000000: cef6 3d3d e8c1 553d cbb4 d5bb 24b2 22be
00000010: 7eeb dc3d fc29 f4be be8f 95be 1b36 763b
00000020: f258 2ebe e3e9 413e 35be a1bd d85c 93bd
00000030: 0eca 67be 939c 48bc 32b3 4fbe 61a0 f9bd
00000040: 5094 da3c 1066 553e 4ea1 e9bc 6e59 243e
00000050: 683a 97bd d300 f13c ad4a 54be e610 26bc
00000060: 23b7 0ebc 1a58 4fbc 1603 91be 87b8 46be
00000070: 05ab 19be 3e94 a8be 4055 13be 8af4 84bd
00000080: e65f 873e f5fe 5dbe 96f7 2fbe 8f16 abbd
00000090: f77d 2fbe b8b3 edbe 3090 1abb 905f 203e
000000a0: d3f4 93be 75cd 53be 7050 d8bd e6d4 ffbd
000000b0: 4b90 31be 6cb6 593d 7b77 ca3d d80b 783d
000000c0: e2c2 2bbe 8366 b5be 8f68 ccbd 5e75 d33d
000000d0: 4693 b2be 9e92 9dbe 4fa1 893d c80e bdbc
000000e0: 987f 02be 6d8a c23c 8fbd 69be a7f9 913d
000000f0: 1d14 dcbe 1152 ebbd be97 44be 88c0 a83d
00000100: 5283 02bd 9353 4dbe fdd7 283e 1cf6 f83d
00000110: d392 a7be 5ab7 1c3c 5f17 ee3d c8b8 bf3d
00000120: 7908 e5be 8ea2 4d3e 3cde 8bbe de13 bdbe
00000130: a768 91be 8296 f73d 22dc acbe 94d8 3ebe
00000140: fb82 bf39 aa51 91bc 923e 20bf 14b4 c6be
00000150: eec5 8abd 6e86 4f3e b669 fb3c 3112 0f3e
00000160: 7787 91bb 769e b6be ffe8 68be a360 2cbe
00000170: fc56 7b3e 27c3 65bd de1f 3ebe 0125 28be
00000180: 4bef e9be 9304 4c3e fcde ad3d 2fd4 2fbe
00000190: 1daf 09be 8b25 833e c648 763d b2ab 0abe
000001a0: 221d 0e3e faae 80bd 5a0d 1ebb 99f9 a23d
000001b0: 1402 7dbc 6156 0abe f0ae 2a3e 65e0 b8be
000001c0: 1140 56be 31e4 153e ea01 863e 0205 10be
000001d0: 20fb a1bd 0585 99bd d4e3 19be 4e3d 22be
000001e0: 6785 6b3e c99e be3d f7d9 91bd 0977 67bd
000001f0: a575 8e3b 46d5 e1bd 4a82 43be 7605 e7bc
00000200: 4238 273e 5c93 803d d893 273d 50b1 f23d
00000210: 04fb 10be c29c 3bbe 80e1 463d 4d31 d1bd
00000220: 8e56 ccbe 5860 853d a838 ebbd 5d32 b0bb
00000230: cb13 a1be 6a28 b3bd 344f a1be 5196 e6bd
00000240: 4d27 0ebc e5ed 12be db77 8abe 407d 5b3d
00000250: 1ccc f6ba a361 b2be 064b 323e f81a 40be
00000260: 1879 4f3e 3ee6 4f3e d85d 02be 0f1a 5bbe
00000270: 6c21 3e3e 2ef5 afbe 6e5c f93d b8d1 ddbe
00000280: 2ad9 79be 3bd0 83be 65fc 6abd a9cc 4f3e
00000290: b890 a9bd 9f06 1a3e 7bad b8be 2a86 1fbe
000002a0: 2999 34bd 51a7 c8bd 12c5 293e 4f9a 5dbf
000002b0: 7bea 93be daf3 4fbe 98db 13be 13db 0e3e
000002c0: c82d 4b3d 1122 69be 8acc 3a3e 2f97 38bd
000002d0: 836b 69bd 7a4c 07bf c7ce 4d3d 74cd 9bbd
000002e0: fb7c 22be 9e27 a63b 5641 a73c dd14 a33d
000002f0: a6fb ce3d 60a7 7ebe 8afc 2cbf c26b 903e
00000300: bbf2 01be 0a7a 023d 57cc a33d f5fe 373c
00000310: dbeb 8cbe 64aa 81bc d52a f83d e88a 303e
00000320: 62b2 8fbd 32e3 9bbe 352a 1b3d 786b 21be
00000330: 70b2 333e 767b c03e 1ee4 b1be 3b22 66be
00000340: e912 343e 585e 71be 9be7 813e f198 1e3e
00000350: f095 9bbe b60a f7be d9a8 ef3d 501d 8cbe
00000360: f9fc 8fba 1a02 c93c 6a97 853d e4a6 96be
00000370: 6976 ac3d 1824 07be 83ee 71be b55f 9f3e
00000380: 9f5b f1bd 4f96 95bd 6daf c43c 57d6 453e
00000390: 2a39 41be 8c82 b8be f9e5 0cbe 6fb7 c4be
000003a0: 58e7 90be aeb9 a1be e88b 763e 228f a3bd
000003b0: 7aa0 413d 8e59 dbbb 6b42 aabe 1489 0fbf
000003c0: 541e fb3c 0b05 e4be 850c 1e3d d25c fb3d
000003d0: 6d10 433e 9cb0 65be c9bb e3bd f83e 943d
000003e0: 2248 70be 5054 c73d 4b9d bd3b 242d 54bd
000003f0: f69e 7ebe 1bab ecbe 6a76 e6be e21b 7b3e
0.04637795 0.052186877 -0.0065217963 -0.15888268 0.10787104 -0.47688282 -0.2921123 0.003756887
-0.17026117 0.18936877 -0.07897607 -0.07195443 -0.22635671 -0.012244361 -0.20283201 -0.12188793
0.026682049 0.20839715 -0.028519299 0.1604974 -0.07384187 0.029419338 -0.20731612 -0.010135865
-0.008710655 -0.012655282 -0.28322667 -0.19406329 -0.15006645 -0.329256 -0.14387989 -0.064919546
0.26440352 -0.2167929 -0.1718429 -0.08353912 -0.17137896 -0.46426177 -0.0023584478 0.15661454
-0.28897724 -0.20683844 -0.10562217 -0.12491779 -0.173402 0.053152487 0.0988607 0.06055817
-0.1677356 -0.35429773 -0.099808805 0.103251204 -0.34877986 -0.30775923 0.0672022 -0.023078337
-0.12743986 0.023747647 -0.22826217 0.071276955 -0.42984095 -0.11490262 -0.1919851 0.082398474
-0.031863518 -0.20051412 0.16488643 0.12156317 -0.32729205 0.009565199 0.116255514 0.09361416
-0.44733027 0.20081541 -0.2731799 -0.3692922 -0.28400156 0.12089254 -0.33761698 -0.18637305
0.00036527947 -0.017739136 -0.62595475 -0.38809264 -0.06776033 0.20266125 0.030690055 0.13971783
-0.0044411975 -0.3566777 -0.22745131 -0.16833739 0.245449 -0.056094315 -0.18566844 -0.16420366
-0.4569038 0.1992362 0.084897965 -0.17170785 -0.13445707 0.2561458 0.060127996 -0.13542059
0.13878301 -0.06283374 -0.0024116845 0.07957763 -0.01544239 -0.13509513 0.16668296 -0.361087
-0.20922877 0.1463783 0.26173335 -0.1406441 -0.079092264 -0.074960746 -0.15028316 -0.15843698
0.23000108 0.093076296 -0.071216516 -0.056510005 0.0043475204 -0.11027007 -0.1909267 -0.028200846
0.16330054 0.062781066 0.04091248 0.11850226 -0.14158255 -0.18321517 0.048554897 -0.102144815
-0.39909786 0.06512517 -0.11485416 -0.0053770975 -0.31460413 -0.08747943 -0.3150574 -0.11259139
-0.008676362 -0.14348562 -0.27044567 0.053586245 -0.001882914 -0.34840116 0.17411432 -0.18760288
0.20261037 0.20302674 -0.12731111 -0.2139666 0.18567437 -0.34366745 0.12175833 -0.43324065
-0.24399248 -0.25744805 -0.05736961 0.20292915 -0.08279556 0.15041588 -0.36069855 -0.15578523
-0.044091377 -0.09797538 0.16579083 -0.8656358 -0.28889832 -0.20307866 -0.14439237 0.13950758
0.049604207 -0.22766902 0.18242088 -0.045066055 -0.056987297 -0.5285107 0.050246026 -0.076075464
-0.15867989 0.0050706407 0.020416897 0.07962964 0.10106592 -0.24868536 -0.67572844 0.28207213
-0.1269025 0.031854667 0.07997959 0.01123022 -0.27523693 -0.015828319 0.121175446 0.17240489
-0.07016446 -0.30446774 0.03788205 -0.15763652 0.17548537 0.37594193 -0.34744352 -0.22473995
0.17585339 -0.23571146 0.25372013 0.1548803 -0.3038783 -0.4825036 0.11702127 -0.27366114
-0.0010985426 0.024537135 0.065230206 -0.29424202 0.084210224 -0.13197362 -0.23626141 0.31127706
-0.117850535 -0.0730406 0.02400943 0.19320045 -0.18869463 -0.360371 -0.13759603 -0.384212
-0.283015 -0.31586975 0.24076807 -0.07986285 0.047272183 -0.0066940254 -0.33253798 -0.5606854
0.03065411 -0.44535097 0.03858616 0.122735634 0.19049235 -0.22430652 -0.111198016 0.07238573
-0.23465016 0.09732878 0.005786573 -0.051800862 -0.24865326 -0.46224293 -0.45012218 0.24522355

sequential/d2/MatMul_bias f4 [36]
00000000: a92d 4fbd dcde 65bc cbc0 d5bd 5d18 763d
00000010: ea23 443d e2e8 26bd 7087 14be 4d4c 13bb
00000020: 1ef0 173c 251f 76bd 3a4a 07bc 2d55 e13d
00000030: 5a66 dbbc b3a8 a5bc d91f 6e3d 1829 c63d
00000040: 5536 39bd 121e 96bb e0ee a63d 2950 a3bc
00000050: 564f 55bd 6fed dfbb d217 48bd 6805 243d
00000060: 29f0 a43c 3aa5 73bd 27d7 92bc 5c9a 78bd
00000070: cf2a 29bb 5cea 76bd a6c9 da3d 8c96 57bd
00000080: 003a c33d 6f11 28bd a3a2 01be aafc 1e3d
-0.050580654 -0.014030185 -0.10437163 0.06008183 0.047885813 -0.040749438 -0.1450479 -0.0022475899
0.009273557 -0.060088295 -0.008257443 0.11002574 -0.026782203 -0.020222044 0.05813584 0.09675807
-0.04521783 -0.0045812214 0.081510305 -0.019935684 -0.052077614 -0.006833724 -0.04885084 0.04004422
0.020134049 -0.059483744 -0.017924858 -0.060694084 -0.002581287 -0.060282096 0.10682993 -0.052633807
0.09532547 -0.04103225 -0.12659697 0.038815178
